model/model_lane_change.pth (torch, 56959 bytes, 10 tensors)

weight f4 [64, 7]
000000 1c c2 00 3f fb 83 10 3e 07 bb d4 3d 0f 89 9b 3e
       0.5029619 0.14112847 0.10387235 0.30378005
000010 e0 35 5e bf 0f c3 bd be 6a f9 be 3d e0 3f a9 be
       -0.86800957 -0.3706288 0.09324916 -0.33056545
000020 ce f5 b3 be 52 4c 66 3e 30 48 69 bd 4b 07 ad be
       -0.35148472 0.22490051 -0.05695361 -0.33794627
000030 94 bc 41 be 28 f2 59 bd 03 c3 98 be ec 36 1d be
       -0.18919593 -0.053209454 -0.29836282 -0.15352982
000040 1a f2 78 3e 7a b1 73 be 9b 74 02 bf 0c ea 0d 3f
       0.24311104 -0.2379817 -0.50959176 0.5543525
000050 c9 85 60 3e 83 99 4c be 98 9d 20 be 07 67 fa be
       0.21926035 -0.19980435 -0.15685117 -0.4890673
000060 f7 55 8e be e3 89 ed 3e 01 de 14 3f 74 37 67 be
       -0.2779996 0.46394262 0.5815125 -0.22579747
000070 ba 37 87 3e d5 05 18 be eb ef 89 be ac 27 46 be
       0.26409703 -0.14845975 -0.26940855 -0.19351071
000080 91 6f 2b bf fb fd 09 3f 74 39 87 3e ef 30 9f be
       -0.6696711 0.5390317 0.2641102 -0.3109202
000090 d6 6a 26 3e 91 f7 ae be 93 bb aa be 30 84 5c be
       0.16251692 -0.34173253 -0.33346233 -0.215348
0000a0 64 65 02 bf f9 80 b3 3e 3d 3e 6f 3e b5 6d cd bd
       -0.5093596 0.35059336 0.23363586 -0.100306906
0000b0 e2 24 fb 3d 7c b4 33 bf 91 4a 41 3d 6f 61 fe 3e
       0.12262894 -0.7019727 0.047190253 0.4968371
0000c0 27 01 95 3a d4 a5 35 3f 6e 23 d6 3e 02 95 91 3d
       0.0011368141 0.7095616 0.41823906 0.07108499
0000d0 74 c0 a6 3c f5 d5 26 bd 1e 91 46 be 5a c9 6b be
       0.02035544 -0.04073139 -0.19391295 -0.23026028
0000e0 c8 41 8d 3d f8 64 f6 be 99 0b ad 3e 81 9b 8d be
       0.068973124 -0.48123908 0.3379791 -0.27657703
0000f0 d8 af 46 be cf a9 c2 3e 14 f5 9a 3e 84 ab de 3e
       -0.19403017 0.3802018 0.30265105 0.4349023
000100 8f 2c 4b 3e 03 75 0a bd 69 11 12 3e 18 87 ff bc
       0.19841217 -0.033802997 0.14264454 -0.031192347
000110 92 d7 43 3e d3 a9 ca be f3 06 7c be 29 75 30 3e
       0.19125202 -0.3958269 -0.24612026 0.17232193
000120 23 a2 cd be d1 e2 e7 be 1c d3 d9 3d 1b 56 d0 be
       -0.40162763 -0.45290235 0.10635969 -0.40690693
000130 e4 2f 9d 3e bc 43 b5 be e5 1d 71 be 9b 9f 4d 3e
       0.307006 -0.3540324 -0.2354656 0.20080416
000140 51 7a 89 3a a7 22 83 be 5b e3 c6 3e 24 52 55 bd
       0.0010488724 -0.25612375 0.38845333 -0.05208029
000150 a4 b5 81 3f 12 7b 28 3f 36 ee 1e bf 0c 7a 22 bf
       1.0133557 0.6581279 -0.6208223 -0.6346748
000160 51 b4 f1 be 18 d5 5e 3e 4c db bb 3e e6 cf 68 3e
       -0.47207883 0.21760976 0.36690748 0.22735557
000170 e9 2d 52 3f 93 69 ee 3e 8e 0d ad bf 80 7d da bd
       0.82101303 0.46564922 -1.3519762 -0.106684685
000180 14 f2 8d 3e 48 34 0c 3e d7 af 84 be da 9b e0 3e
       0.27723753 0.13691819 -0.25915405 0.43868905
000190 a4 3b 48 bf ca d0 ae 3e 1f 47 de 3d b3 43 b8 3e
       -0.78216004 0.34143668 0.10853409 0.3598915
0001a0 2a 84 cc bc 42 6a 83 3f 43 05 44 3f 76 c8 12 bf
       -0.024965364 1.0266802 0.7657053 -0.5733713
0001b0 a3 f6 57 bf d8 65 42 3d 94 94 dd 3c 1c 5d f7 3b
       -0.8436071 0.047460407 0.027048387 0.0075489413
0001c0 c8 61 67 3e 05 4c 8f be de 1d a7 3c fb f9 2a 3e
       0.22595894 -0.27987686 0.020399984 0.16696922
0001d0 4c 0f b8 be 35 09 84 be a2 ce 6e 3c d8 15 70 3e
       -0.3594917 -0.25788274 0.014575632 0.23445833
0001e0 48 c0 24 bf a0 46 4f 3f ce 11 cd 3c 7f 97 bf 3d
       -0.643559 0.8096714 0.025032904 0.093550675
0001f0 60 53 5f bd 03 85 38 bd d0 25 27 3d 0e e2 25 bf
       -0.054522872 -0.045048725 0.040807545 -0.6479806
000200 c1 99 b5 3e b1 a0 0d 3e 51 8e e7 bd 93 ea 21 3e
       0.35468867 0.1383083 -0.113064416 0.15812139
000210 58 5a 25 3e f4 70 f0 3d 56 35 72 3f 50 b9 ef 3e
       0.16147745 0.11740294 0.94612634 0.4682107
000220 ad a1 b8 3e 9c 96 8f bf 60 be be 3d 00 5e 9e be
       0.3606085 -1.1217837 0.09313655 -0.3093109
000230 fc c1 ca 3e cb a6 b2 bc 35 3f 88 bf 04 f4 62 3f
       0.39601123 -0.021808049 -1.0644289 0.8865359
000240 00 6d bc bc b7 23 22 3e 88 7b 1a bb 6a 4b 43 3e
       -0.023001194 0.15833937 -0.0023572166 0.19071737
000250 a9 ea f2 3d ef ba a6 3e f6 be 0f 3f 68 e6 62 bf
       0.11861164 0.32564494 0.5615076 -0.8863282
000260 17 85 10 bc 6c 3c 0b bf a6 ca 1c bf 3f b3 30 be
       -0.008820794 -0.5438907 -0.61246717 -0.17255877
000270 13 3c 00 bd a5 06 7f 3f 83 df fe 3c e0 29 e4 3c
       -0.03130729 0.99619514 0.031112438 0.027851999
000280 ab 6c 0a 3d d7 53 95 be 24 be c3 be 04 43 68 3f
       0.03379504 -0.29165527 -0.38231003 0.9072726
000290 d6 69 df 3e 56 6b a0 3d 1d 40 3b bf 40 f6 a6 3d
       0.43635434 0.07832973 -0.73144704 0.08152437
0002a0 c6 a3 84 3d 87 b7 7e 3e ff dd c9 bd 10 2f 69 bd
       0.0647655 0.24874698 -0.098567955 -0.056929648
0002b0 23 7c 6a be 07 95 07 bf c6 4b b5 3e 95 7c 28 bf
       -0.22898917 -0.5296177 0.35409373 -0.658151
0002c0 c6 bb 01 bd df f2 6a bf cf 43 8e 3f 01 30 00 3e
       -0.031673215 -0.9177684 1.1114444 0.12518312
0002d0 15 31 60 3e e4 08 dd 3d 96 48 ad be df 48 b1 be
       0.21893723 0.107927114 -0.3384444 -0.3462591
0002e0 cd 28 05 3d 8b 07 af bc 8b 33 74 be aa ac f9 3d
       0.032509614 -0.021365901 -0.23847787 0.12191136
0002f0 cc ad 6c be 60 c8 63 3c ef 2d 18 3c 00 f9 9c bd
       -0.23113173 0.013902754 0.009288295 -0.076646805
000300 f3 26 78 be 4c 4b c8 3c 98 8e e8 3e c3 41 bc be
       -0.24233608 0.024449967 0.4542129 -0.36768922
000310 46 8f 28 3f 4f 5a c2 bd bf e6 a4 3e 23 4a 37 bd
       0.6584362 -0.09489881 0.32207295 -0.044748437
000320 c9 17 22 3b ed 5a b9 bd 7d c8 fe bd ab ef 82 3d
       0.0024733415 -0.09050546 -0.12440584 0.06393369
000330 9f ee 80 3d 3b 6b a7 be 63 c7 d8 be e4 84 59 bd
       0.06295513 -0.32698998 -0.4233962 -0.05310525
000340 09 2d be 3e 55 92 de bd 39 3c 1c 3d e1 a9 17 3e
       0.37143734 -0.10867754 0.03814337 0.14810897
000350 76 36 c4 be 4b f2 d8 be 3d 86 b8 3e e8 96 00 3e
       -0.383228 -0.42372355 0.36039916 0.12557566
000360 d4 93 e3 3b 64 5d 41 3e a5 05 db be d0 99 16 3f
       0.0069451127 0.18883282 -0.42777744 0.5882845
000370 08 91 54 3d 04 d8 26 bd ea ff be bd 9f 45 f5 3c
       0.051896125 -0.040733352 -0.093261555 0.029940424
000380 04 5e 81 be cd 56 e4 be 97 98 85 3f 53 12 c2 be
       -0.2526704 -0.44597474 1.0437192 -0.37904605
000390 50 50 b8 3d e6 85 5f 3e d0 7c b0 3d 9e fb 58 bf
       0.089996934 0.21828422 0.08617556 -0.8475894
0003a0 75 57 20 bf c2 a9 65 3f 79 c5 57 3f 06 e2 7b 3e
       -0.6263345 0.89712155 0.84285694 0.2459794
0003b0 db e8 19 3e bb cd 89 bc 64 ee 0c bf a5 3b ed be
       0.15030234 -0.016821733 -0.55051255 -0.46334568
0003c0 ce ca a4 be 3c 4a bd be 28 5e 2d 3f a8 bb 23 be
       -0.32185978 -0.369707 0.67721796 -0.15989554
0003d0 f8 ff 92 be 95 81 74 bd 75 10 35 3c e0 f7 b8 3e
       -0.28710914 -0.05969389 0.011051287 0.36126614
0003e0 c0 3a f0 3e 8f 94 04 bf 0c 59 ba be b8 cb da 3e
       0.46919823 -0.5178918 -0.36396062 0.4273355
0003f0 84 ce 4a 3e 56 5a 8e 3e 79 b4 d3 3e 9d 06 a4 3e
       0.19805342 0.27803296 0.41348627 0.32036296

bias f4 [64]
000000 62 70 0a 3e 90 cc d0 3c d3 f5 8d 3e 29 a5 86 be
       0.13519433 0.025488168 0.27726611 -0.26297882
000010 7d e3 34 3e e0 27 b6 3d 6e 07 14 be 99 b0 e8 3d
       0.17664905 0.08894324 -0.14455959 0.11361808
000020 2e 00 11 3e fe d0 9b be 59 d3 85 3e f5 c5 00 be
       0.14160225 -0.30432886 0.26137808 -0.12575515
000030 e8 cc 15 be 40 3e 0e be 39 91 94 3c fa d7 88 bc
       -0.14628947 -0.13890934 0.018135654 -0.016704548
000040 23 87 bf 3d 90 89 08 3e 07 10 a1 be 85 69 c1 bd
       0.09351947 0.13333726 -0.3145754 -0.094439544
000050 35 bf 26 3e 1f 0c 1e be 83 e9 88 3e bd 21 1b 3c
       0.16283877 -0.15434311 0.26740655 0.009468493
000060 5e ec 05 3e c4 73 8a 3e 71 fb 4f 3d a7 88 ba be
       0.13078448 0.27041447 0.050776903 -0.36432382
000070 c2 f0 c0 be 0f 99 54 be bc 85 cf bd ca be bb 3c
       -0.37683684 -0.20761512 -0.1013293 0.022918124
000080 31 81 1c bc 7a 2a 87 3e 53 55 93 3e 04 ed 23 bc
       -0.009552286 0.26399595 0.28776035 -0.010005239
000090 1b dd 4e 3c 7c 78 cc bd 37 4c 68 be c6 65 87 bb
       0.012625958 -0.09983918 -0.22685324 -0.0041320054
0000a0 89 1b b5 3e 6c 99 a9 3d 5b 05 8f 3e b1 9b 3a 3b
       0.3537257 0.08281216 0.27933773 0.0028474147
0000b0 61 e9 69 be fd 35 23 bd ff a5 ad 3e e5 2e 8f 3e
       -0.22842933 -0.03984641 0.33915707 0.27965465
0000c0 21 95 aa 3e 8a 5a 6a bd 64 eb b1 bd b3 eb 4b be
       0.333169 -0.05721525 -0.08687475 -0.19914131
0000d0 bb 8f be 3d 8a 78 b9 3e ef 93 26 be fe fd 89 3e
       0.09304758 0.36224777 -0.1626737 0.26951593
0000e0 57 8b 9d 3e 68 1a ad bd 7c 8f 38 3e fc 55 a4 be
       0.3077037 -0.08452302 0.18023485 -0.3209685
0000f0 80 cb c6 3e 69 43 53 bd d3 60 82 bd 68 cc 23 3e
       0.38827133 -0.05157796 -0.06366124 0.15995944

weight f4 [64, 64]
000000 1d ee aa 3c bc 7f 7b bd d5 fd 81 3d 03 ad 2c 3e
       0.020865494 -0.061401114 0.06347243 0.16862874
000010 22 07 1c bd ed 1f b1 3d 6b c9 6a 3d 1f 8c 11 bd
       -0.03809274 0.086486675 0.057320993 -0.03553402
000020 3a b9 f3 bd dc b8 a9 3c 48 42 0d 3e 9a cf 4a bc
       -0.119005635 0.02071803 0.13794816 -0.012378598
000030 1e 9e 16 be f8 e8 c5 3a fd 86 c9 bd 53 30 55 bd
       -0.14708754 0.0015099337 -0.098402 -0.05204804
000040 2a 12 a4 bd 56 11 24 bd 9c 20 b3 3c 18 81 a3 3d
       -0.08011277 -0.040055595 0.021866135 0.07983607
000050 89 52 89 be 9f cf c7 3d dc e9 ce bc 7c d1 1a 3e
       -0.26820782 0.097563975 -0.025257997 0.15118974
000060 25 4e 9a bd 4f ec 72 be 0d b5 ed bd 78 83 8c 3d
       -0.07534436 -0.23722957 -0.11606798 0.06861013
000070 fa 6f ee 3c 02 ad 1c 3d 6f b9 e8 3d 4b fa f2 bd
       0.029106129 0.03825093 0.11363494 -0.11864146
000080 e8 77 06 3e 3b 05 23 be c1 4c a4 3d e9 41 cd bd
       0.13131678 -0.15919964 0.08022452 -0.10022337
000090 1b 09 64 3d 0c 8d d6 3c 1f 20 81 bd b2 ac f4 3d
       0.055672746 0.026190303 -0.06304955 0.119470015
0000a0 35 f3 fe bb 21 0d 93 bd 80 8a 55 bb b0 65 ac 3d
       -0.0077804574 -0.071802385 -0.0032583773 0.08417833
0000b0 77 eb c5 3c da 48 27 3e 58 d0 86 3d 0d e3 39 be
       0.02416013 0.16336384 0.06582707 -0.18153019
0000c0 fe 09 85 3d 41 10 19 be 66 fe e1 bd c0 44 cb bc
       0.064960465 -0.14947607 -0.11034851 -0.024813056
0000d0 b1 54 41 be 9c cd 02 3e 85 a5 03 be d5 46 e3 3c
       -0.18879963 0.12773746 -0.1285611 0.027743736
0000e0 62 83 8c 3d 4b 3b 5e 3d ab 0f 68 3e 6f 39 90 3d
       0.06860997 0.054255765 0.22662227 0.070422046
0000f0 87 23 a6 bd 21 38 00 bd 4d 2d 9f 3d b1 77 0c be
       -0.08112245 -0.03130353 0.07772312 -0.13717534
000100 f7 83 22 3c 1c 30 f1 3d 89 da 86 3d 0b 0f d9 bd
       0.009919158 0.11776754 0.06584651 -0.10598572
000110 16 fe fc 3d 06 a2 1e bd 0b d0 9e 3d 72 ba 95 bd
       0.123531505 -0.038728736 0.07754525 -0.07310952
000120 85 92 0c 3e 49 69 54 3d a4 70 bf 3d b4 5e 22 bd
       0.13727768 0.05185822 0.09347656 -0.039641097
000130 2f c0 c9 3c 81 98 98 bd b2 28 9f bd 63 6c 80 be
       0.024627773 -0.07450963 -0.07771434 -0.25082693
000140 50 bd da 3c 13 f2 06 3d 2a e1 73 3d 0d 63 6b 3e
       0.0267016 0.032945704 0.059540905 0.22987004
000150 97 9a 76 bd d2 0f dc 3a 47 33 57 3d d6 c7 9b bd
       -0.060206022 0.0016789383 0.052539136 -0.07606475
000160 6d 6d 20 be f5 ce 03 be d3 b4 9f bd be 1a 8d 3d
       -0.15666743 -0.12871917 -0.07798161 0.06889866
000170 d9 01 4e 3c 54 02 5e 3d 52 15 39 be b3 c9 e0 3d
       0.012573683 0.05420144 -0.1807454 0.10975971
000180 01 67 e6 3c 90 d3 14 bd fc 4a 5e 3d 3b 28 ec 3d
       0.028125288 -0.036334574 0.05427073 0.11531111
000190 43 e5 1f 3e 44 0d 2f bd ab 8a 33 3d cd 79 a5 bc
       0.156148 -0.04273726 0.043833416 -0.02019968
0001a0 de b1 d9 3d 03 0c eb bc a2 79 e1 3d da 5f 96 bd
       0.106296286 -0.028692251 0.11009528 -0.07342501
0001b0 3a 1d a1 bd eb eb d4 bd 72 8e ad 3d 07 15 3c 3c
       -0.07866903 -0.1039656 0.08474435 0.011479623
0001c0 9b 6c 0e be 93 f8 b4 bc c0 99 30 bc c8 1b 0f 3b
       -0.13908617 -0.022091186 -0.010778844 0.0021836627
0001d0 0f 76 9e 3d f8 26 2b bd 53 e3 12 3e 5e d6 97 bd
       0.07737362 -0.04178521 0.1434453 -0.07413934
0001e0 fa e5 f6 bd a4 81 fd bc c2 70 3b be 1e 9c 02 3c
       -0.12055583 -0.030945607 -0.18304732 0.007971792
0001f0 b6 96 38 3c 78 c9 d5 bd 90 d5 63 be 90 1e cb bd
       0.011266401 -0.10438818 -0.22249436 -0.09917939
000200 1c 1b f6 3d 4c 5b 3d 3d 44 c2 c7 3d 47 b7 5d 3d
       0.120168895 0.046229646 0.0975385 0.054129865
000210 3d 71 30 bd d7 f6 9a bc 38 8f a6 bd 42 98 bd bd
       -0.043076742 -0.01891653 -0.081327856 -0.092575565
000220 8f 3c 25 3d fd 9c 08 be 52 97 ec 3d 94 43 c8 bd
       0.040340956 -0.13341136 0.115522996 -0.097785145
000230 ec 89 1a be d8 7a df bd e2 de 11 be fe 1d 39 3d
       -0.15091676 -0.109121025 -0.1424518 0.04519462
000240 bc ab 05 3d c1 7c 19 be ef 2b 9d bd 20 c1 64 3c
       0.03263448 -0.14988996 -0.07674395 0.01396206
000250 0c bb f2 bd fa 63 bc 3d 71 22 d8 bd 25 a2 a6 3d
       -0.118520826 0.091987565 -0.10553444 0.08136395
000260 98 d8 1c be b7 2f 26 3d 8e f0 d6 3d 39 fd f1 bc
       -0.15316999 0.04057285 0.10495101 -0.029539691
000270 25 e6 88 bd 87 d2 3f bd 9e 91 de 3d ec 1a 1a 3c
       -0.066845216 -0.046831634 0.10867618 0.009405833
000280 24 54 a2 3b f2 13 3c be 9b 3c 22 3e 16 c4 cc 3d
       0.004953878 -0.18366984 0.15843432 0.09998338
000290 a0 aa e1 bd 2d f5 dc bb 3a 0f 69 3d b1 6d 00 3d
       -0.11018872 -0.0067430944 0.056899287 0.03135461
0002a0 54 98 e3 3d 9a d8 b3 bc 20 c8 f6 3d 40 fc 3b bd
       0.11113039 -0.02195387 0.120498896 -0.04589486
0002b0 51 68 09 be 9d 44 aa 3c 52 3e be 3d fd ea ff bd
       -0.134187 0.02078467 0.092892304 -0.12495992
0002c0 5f 94 52 3d 3c 0e 08 be 40 41 00 3d b3 f3 84 bd
       0.05141103 -0.1328668 0.031312227 -0.064917944
0002d0 bf 7b eb 3b a0 a4 ee bd 78 32 f5 3d 60 11 dd 3d
       0.0071863825 -0.116524935 0.11972517 0.1079433
0002e0 b9 67 a4 3d 96 9b b6 3d 55 11 a3 bd 68 31 b2 bc
       0.08027596 0.089163944 -0.0796229 -0.021752074
0002f0 d5 4d 02 be ac 91 19 3e 17 e5 35 be 55 e2 26 bd
       -0.12725003 0.14996976 -0.17763172 -0.04074319
000300 bb c7 a8 bc 14 ae b6 bd c2 30 9d 3d 47 2e 35 bd
       -0.020603051 -0.089199215 0.076753154 -0.044233587
000310 fa 4e 00 bd 6b 73 b5 3c d8 4c 37 bd 0a 0b 3a 3c
       -0.031325318 0.022149762 -0.04475102 0.011355171
000320 ec aa de bd 22 0e 0d bd f2 0b e2 3d d8 89 e4 3c
       -0.108724445 -0.034437306 0.11037435 0.02789776
000330 2f 46 d6 bd 04 8a d1 3d 16 f2 11 bd 8c 93 5e bd
       -0.10462605 0.102314025 -0.03563126 -0.05433993
000340 00 be 9b bd 53 c6 6b 3d c5 8d a7 3d fc 0f a7 3d
       -0.07604599 0.057562184 0.08181337 0.08157346
000350 4d 8d 25 bd b3 c0 7a bd 09 43 a8 bd 7d ac f4 bd
       -0.040417958 -0.06121893 -0.08215911 -0.11946962
000360 99 27 99 3a 7f 20 00 3d aa 5a b2 3d 9b 0a e0 3d
       0.0011684775 0.03128099 0.08708699 0.10939523
000370 08 90 e3 bc 80 df 7e bc ac a3 a3 bd 63 b8 92 bc
       -0.02777864 -0.015556216 -0.07990202 -0.017910188
000380 83 26 f4 bc 80 50 c7 bd cd bf 39 3d 8e 55 01 3e
       -0.02980352 -0.09732151 0.04534893 0.12630293
000390 92 4b 74 bd 4a 6d d1 3d f6 b3 19 3d ed f4 75 bd
       -0.059642382 0.10225923 0.03752514 -0.060048033
0003a0 08 9a b5 bb 4e 32 62 bd b4 71 3e 3d 8c e9 3b bd
       -0.0055420436 -0.055223756 0.046495155 -0.045877025
0003b0 25 2b 36 3d c7 cd a5 bc aa 14 83 bd 15 7d 04 be
       0.04447474 -0.020239724 -0.06400426 -0.1293834
0003c0 ae 89 31 bd 74 ae af bd 98 65 86 3d 6a b6 89 3d
       -0.043344192 -0.08578196 0.06562346 0.06724246
0003d0 ec b5 c1 bc e8 83 67 bd f2 fa da 3d 4f 43 6b bc
       -0.023646317 -0.05652228 0.10692395 -0.014359309
0003e0 49 2f cd 3c 2c 8b 87 3d 7b af 40 3d 42 c7 3c 3d
       0.025046961 0.06618342 0.04704235 0.046088465
0003f0 f3 b5 e3 bc d3 77 d2 3d 7c b5 af bd 1d b2 6f 3d
       -0.027796721 0.10276761 -0.08579537 0.05851947

bias f4 [64]
000000 32 12 28 bd 71 40 82 bc e6 d1 c7 3c 45 d8 93 bb
       -0.041032977 -0.015899869 0.02439208 -0.0045118653
000010 b0 81 f1 bc 27 0c 71 3c 42 cb 03 bd 7f ac b2 bd
       -0.029480785 0.01471237 -0.032176264 -0.08724307
000020 74 c2 ab bd a4 76 83 3d ca 46 ea bd ed 98 0c be
       -0.08386698 0.06419113 -0.11439283 -0.13730212
000030 3a b7 3c 3d 1f 6d fa bd 06 e6 3a bd 4e dd 69 bd
       0.046073176 -0.122278444 -0.045629524 -0.05709582
000040 2e 27 9a bd 1a 2b 73 bc b0 39 32 bd 12 42 b2 3d
       -0.07527004 -0.014841819 -0.043512046 0.08704008
000050 00 55 31 3d 7e 18 aa bd c5 6e c7 3d 0f 9c fd bd
       0.043293953 -0.08305453 0.097379245 -0.123832814
000060 f8 ff cb 3d 0a 13 fb bd cd 7c df bd 75 3a 08 be
       0.099609315 -0.12259491 -0.10912476 -0.1330355
000070 eb 5b 9c 3d 0c b1 e4 3d bb f2 d2 bd 4f 59 ab 3d
       0.076347195 0.111665815 -0.103002034 0.08366644
000080 9b c8 e1 3b ea db 02 be 7e 02 0c be 1f 8b e4 3a
       0.006890369 -0.12779203 -0.13672826 0.0017436481
000090 de 3b 80 bd 40 91 e0 3d 08 cf 1f bd 2e 51 a9 bc
       -0.06261419 0.10965204 -0.0390158 -0.020668592
0000a0 44 43 9a bc 58 82 66 bd c8 6a 3c bd 42 c2 0e bc
       -0.018830903 -0.05627665 -0.046000272 -0.008713307
0000b0 2a d2 30 bb 6a 10 19 3d 7d 53 42 3c 54 3a 12 3d
       -0.0026980736 0.03736917 0.0118607255 0.035700157
0000c0 52 50 15 3e 8d 72 a2 bd 8a 99 dc bd 92 16 eb 3d
       0.14581421 -0.07932005 -0.10771473 0.11478914
0000d0 78 73 0f 3d 46 61 f8 3d 78 8b c8 bd 51 55 bf 3d
       0.03502223 0.121279284 -0.097922266 0.09342445
0000e0 11 31 99 3b 7e 79 d6 3d 04 cf 8c bc b9 8b 28 3d
       0.0046750386 0.104723915 -0.017188556 0.041148875
0000f0 08 de 5e 3d e6 d5 f7 3d 7c 39 12 3e 35 b6 92 3d
       0.054410964 0.12101345 0.14279741 0.071636595

weight f4 [64, 64]
000000 4d 79 e1 bd 4d 96 88 bd 98 e5 e7 3c c6 0c c4 3d
       -0.110094644 -0.066692926 0.028307721 0.09572749
000010 b4 6b 25 bd 84 13 5d 3d 83 04 a9 bd 27 90 df bd
       -0.040385917 0.05397369 -0.08252814 -0.10916167
000020 c1 c9 94 3d ca 4f b6 bd 94 90 1a 3e d6 23 0d 3e
       0.07265044 -0.08901937 0.15094215 0.13783202
000030 b7 4b 0b be 44 c7 79 3d ee 2e 5e bc 9c 89 c0 bd
       -0.13603102 0.06098105 -0.013560994 -0.09401247
000040 1b 57 ca bd e4 c5 8f bd fc 2f 16 3d b7 16 eb 3d
       -0.09879895 -0.070201665 0.036666855 0.11478942
000050 10 90 6d bd 63 c0 a8 3c a2 11 be 3c e2 13 e3 bd
       -0.057998717 0.02059955 0.023201767 -0.11087777
000060 6e dc d3 3d 17 6c 8a 3b b8 af 25 bd 92 f4 27 bd
       0.10344778 0.004224311 -0.04045078 -0.041004725
000070 fd e0 76 3d a8 63 2f be f5 57 af bd 3e 92 83 3c
       0.06027316 -0.1712786 -0.08561698 0.016060945
000080 8b a7 bd 3d 78 8f 54 3e c6 25 40 bd 20 3d c6 3d
       0.09260472 0.20757854 -0.046911024 0.096796274
000090 04 54 35 3d 28 ae 3b 3d a9 fc 17 3d e9 95 a7 bc
       0.044269577 0.045820385 0.03710619 -0.020457225
0000a0 2c 93 a9 bd 6e bd c1 3d 01 43 8a bd 46 8c 66 bd
       -0.08280024 0.09459959 -0.06751061 -0.05628612
0000b0 f9 a0 b6 ba 70 05 fa 3d 47 57 3e bd 66 4c 17 3e
       -0.0013933472 0.12208068 -0.046469953 0.14775237
0000c0 98 5b d8 3d 37 85 96 bd 0f 76 8c bd 38 ce f7 3c
       0.10564345 -0.073496275 -0.068584554 0.0302497
0000d0 b6 27 25 3e 06 8d 28 be a7 ea dd 3c e7 a9 13 be
       0.1612843 -0.16460046 0.02708943 -0.14420281
0000e0 44 58 81 bd 92 5d 51 3b f4 94 a3 3c fc 11 60 be
       -0.063156635 0.0031946641 0.019968487 -0.2188186
0000f0 52 52 48 be cc a4 83 bd 5b 86 bf 3d c4 31 2f bc
       -0.19562653 -0.06427917 0.09351798 -0.010693017
000100 78 51 b6 bd 32 be bc bd 8c ef fc 3d 6d e8 f7 bc
       -0.08902258 -0.092159644 0.123503774 -0.030262196
000110 60 d1 d2 bc a6 26 66 bc c2 6b 9e 3d ef 4a 93 3d
       -0.025734603 -0.0140473 0.07735397 0.07192027
000120 25 5b d3 3c 49 23 d3 bd 69 62 11 bc f2 08 81 3d
       0.025800297 -0.103094645 -0.0088735605 0.06300534
000130 7c 14 ec 3b a4 0f 71 3d 83 7c ac 3d c8 83 d6 3d
       0.0072045904 0.058852807 0.08422186 0.10474354
000140 60 4c 05 be b5 3a cc bc 41 96 b4 bd e5 a9 29 3e
       -0.13017416 -0.024930337 -0.08817721 0.16568716
000150 f8 0b f4 bc dd d9 75 bd 25 1c 14 be c7 c5 69 be
       -0.029790863 -0.060022224 -0.14463861 -0.22829352
000160 2b 26 81 3d 79 6b 9b 3c 4a 98 8d bc b4 5c bd bd
       0.06306108 0.018972145 -0.017284531 -0.09246197
000170 5d 33 f0 bd bd de 76 be 88 07 87 bd 05 0c 0a bd
       -0.11728547 -0.24108405 -0.06593233 -0.03370287
000180 46 67 34 be 0d f4 42 be de 71 19 be fe 73 59 3e
       -0.1761752 -0.1903841 -0.14984843 0.21235654
000190 71 0a 24 3e a5 51 73 bd e2 63 54 bd 57 c5 99 3d
       0.16019608 -0.059404034 -0.05185307 0.07508343
0001a0 0d 63 a4 bd 85 96 dd 3b fb d0 25 be d1 21 89 bd
       -0.08026705 0.006762328 -0.16193001 -0.06695903
0001b0 7f 35 29 bc af 6d a5 bc 4e 35 39 3d 50 e1 66 3d
       -0.010327696 -0.020193903 0.04521685 0.05636722
0001c0 8c 6a f0 bd f3 a2 6b be 20 d3 ef 3c c5 54 47 bc
       -0.11739072 -0.23011379 0.029275477 -0.012166207
0001d0 47 9e 04 3e 37 ee ac bd d5 de 45 be 07 a9 7b 3a
       0.12951003 -0.084438734 -0.19323285 0.0009600077
0001e0 ff 9c ca bc 35 e9 9c bd b5 29 d8 bb 5a 30 9f bc
       -0.024733065 -0.07661668 -0.0065967687 -0.019432236
0001f0 bb 8f 01 bd f6 55 93 bd d4 91 0c 3e 23 0f 81 3c
       -0.031631213 -0.0719413 0.13727504 0.015754288
000200 5d 9a ec 3d b1 c7 b4 bd 98 5e 47 bd dd b5 be 3d
       0.1155288 -0.088271506 -0.048674196 0.093120314
000210 00 c7 22 3d fb 2c bb bd c7 b6 91 bd 83 46 7d bd
       0.039740562 -0.09139439 -0.0711494 -0.061834823
000220 ba c6 48 bd 6f 21 eb bd 7d 61 15 3b 23 fc 16 be
       -0.049017645 -0.11480986 0.0022793703 -0.1474462
000230 8a 47 68 bd d6 50 dc 3c 67 68 af bd 35 d3 9a bc
       -0.05670885 0.026894014 -0.08564835 -0.01889954
000240 1a 03 ee bd d1 06 4e 3d fb cb 62 bc 74 fe cc 3d
       -0.11621685 0.05029947 -0.013842578 0.100094706
000250 00 c8 83 bb e2 8e d5 3d 4f 85 04 bd b4 f9 c1 3d
       -0.0040216446 0.10427643 -0.032353695 0.09471455
000260 5f 79 d4 bd fa d3 a7 bd c8 37 f7 bd 3c 24 ef 3d
       -0.10374712 -0.08194728 -0.12071186 0.11676833
000270 fb 1c 9c 3d 09 0e e5 bd 63 97 66 bc da 87 ee bd
       0.07622715 -0.111843176 -0.014074179 -0.116470054
000280 9e 51 ac 3d fe b0 89 bd d4 f0 01 3b 96 1f 98 3d
       0.08414005 -0.06723212 0.0019827383 0.074278995
000290 12 ef b0 bd 70 99 33 3d d1 f3 ac bd d0 19 df bd
       -0.08639349 0.0438475 -0.08444942 -0.10893595
0002a0 54 fd 97 3d b1 b6 c6 3d db 14 ee 3d 65 5f d8 bd
       0.074213654 0.09702814 0.116250716 -0.1056507
0002b0 04 7a a1 bd 73 9b 49 bc 66 ba be 3d 92 15 92 bc
       -0.07884601 -0.012305128 0.093128964 -0.017832551
0002c0 9f a4 f7 bb 08 8e d1 bd b1 e5 b7 3c 48 ea c9 bd
       -0.007557466 -0.102321684 0.022448393 -0.09859139
0002d0 56 72 c6 3d cd 7f 07 be 91 d3 0a 3c 80 1c 48 3d
       0.096897766 -0.13232346 0.008473293 0.048855305
0002e0 2a f6 20 bd a1 2c 0e be 00 00 f7 36 ab 93 9c 3b
       -0.03929726 -0.13884212 7.3611736e-06 0.0047783456
0002f0 da 6c 97 bc c8 04 fa 3d 68 96 02 3d 6d 23 dc bd
       -0.018484522 0.12207943 0.03188172 -0.107489444
000300 cb 1e eb 3d 18 98 7b 3d e8 da 0b be d4 d6 91 3d
       0.11480483 0.061424345 -0.13657725 0.07121053
000310 60 9f 4b bd 50 17 ba bc f9 b7 60 bd 28 93 9c bb
       -0.04971254 -0.022716194 -0.05486295 -0.0047782846
000320 6b 3d 20 bd ae a8 6e be db 54 1f 3e 7f 52 62 3e
       -0.039121073 -0.23306534 0.15559714 0.22101782
000330 ff d3 0d 3e c2 64 a6 bd 4e 0d 87 bd 6e 12 a8 b9
       0.13850401 -0.08124687 -0.065943345 -0.00032057188
000340 ae 23 a6 3e b2 1a 80 be 3b 5d aa 3c 74 18 11 bd
       0.32449096 -0.25020367 0.020796409 -0.03542371
000350 e8 d7 e4 3c cc 72 ce 3d b9 6e 68 be 88 6a 35 bd
       0.027934983 0.100804895 -0.22698487 -0.04429105
000360 fc bf 45 3e c3 31 91 3d 16 9c ac 3d b2 3f 86 bd
       0.19311517 0.070895694 0.084282085 -0.06555118
000370 70 54 85 bd 3e 01 1f 3e 25 f9 80 3c b7 03 7a 3d
       -0.06510246 0.15527818 0.015743801 0.0610387
000380 ed c1 a4 3d 47 8f 37 bc c6 4f 4a 3c 6e 76 53 be
       0.08044801 -0.011203594 0.012348121 -0.20650646
000390 53 b3 e3 3d c8 5c 20 3e e5 31 a8 bb be 2c da 3d
       0.11118188 0.15660393 -0.005132901 0.10653065
0003a0 7b e1 07 3e 0c b1 6d 3d b6 46 10 be 3c 7c 81 3c
       0.13269608 0.058030173 -0.14089474 0.01580631
0003b0 52 06 e8 bc d7 cc 46 3d a3 d2 90 bd f2 00 61 3d
       -0.028323326 0.048535194 -0.07071426 0.054932542
0003c0 cd db 87 be 10 a5 8c be 0d 95 e1 3d 05 f3 89 be
       -0.26534882 -0.27469683 0.11014757 -0.26943222
0003d0 76 f8 de bd 90 84 3b bd 5e 6e 7f 3e f6 83 c5 3d
       -0.10887234 -0.04578072 0.24944445 0.0964431
0003e0 06 03 36 be 85 92 cb 3d 86 ba 6f 3d ee b8 9b 3d
       -0.17774591 0.09940056 0.058527492 0.07603632
0003f0 ab cc 27 3d 8e 93 49 3c 4e 72 50 3d 49 d6 19 3e
       0.04096667 0.012303246 0.05089026 0.1502315

bias f4 [64]
000000 ff 45 74 bd 4c 76 a7 bc 42 34 b7 bd c1 3d 28 be
       -0.059637066 -0.02044215 -0.08945514 -0.16429807
000010 3c 2c 3f bc 63 a0 39 bd 39 16 8f bb 0b d2 a7 3c
       -0.011668261 -0.045318972 -0.004366663 0.020485898
000020 88 c5 87 3d 3a f3 54 bd 78 c8 03 3e a2 25 44 bd
       0.06629473 -0.05198977 0.12869442 -0.047887452
000030 ed 8e 17 3d 4c 59 be 3d 56 2e 95 3d d4 cd 8a 3d
       0.03700154 0.09294376 0.072842285 0.0677754
000040 d6 03 86 bd 9b 89 e7 bd 13 16 93 3d 5b 90 b0 bd
       -0.065437004 -0.11305543 0.07181945 -0.086212836
000050 23 fa 88 3d c6 44 bb 3d 03 f2 1b 3d 25 d4 3a 3d
       0.06688335 0.09143977 0.038072597 0.045612473
000060 09 f8 ef bd 43 74 08 be 41 97 16 3e b9 e7 a8 bd
       -0.11717231 -0.133256 0.14706136 -0.082473226
000070 0f 20 e6 3d 35 a5 ac bd d3 cf ce 3d 3f 5a 9c bd
       0.112365834 -0.08429948 0.10098233 -0.076344006
000080 09 b1 03 bc 73 2c c0 3d dc 62 df bc 07 82 56 3d
       -0.008037814 0.09383478 -0.02726882 0.052370097
000090 d2 3a 68 3d 59 73 15 3c cf b9 ca 3d 09 95 fc 3b
       0.05669672 0.009121739 0.098987214 0.007708196
0000a0 9e aa 04 3e 26 42 7a bd 15 74 6f bd 51 d3 68 bd
       0.1295571 -0.06109824 -0.058460314 -0.056842152
0000b0 76 92 ae 3d d7 0c 50 bd 8f f7 89 3c e5 de a5 3d
       0.08524029 -0.050793495 0.016841678 0.080991544
0000c0 b5 c7 e1 3d dc 05 4c 3d 31 b7 6e bd 91 6d 9e bd
       0.11024419 0.049810275 -0.058280174 -0.07735742
0000d0 cf 98 9c 3d 73 8e b2 3d 4b 16 f3 3d 1b aa 18 3d
       0.076463334 0.08718576 0.118694864 0.0372716
0000e0 9d 7a ce bc e0 8e 8d bc 5d cc 0b 3e 40 2f 71 3c
       -0.025204951 -0.017280042 0.13652177 0.014720738
0000f0 1d b0 27 3e 7c 79 b6 bd 46 8f f5 3d c1 56 c0 bc
       0.16375776 -0.0890989 0.11990218 -0.023478867

weight f4 [64, 64]
000000 8e 16 c5 bd 78 4c 1b bd a9 f7 ed 3d e6 c2 0f 3d
       -0.096234426 -0.037914723 0.11619503 0.03509798
000010 bd 33 bd bd 68 98 04 be 64 07 c6 bd 10 91 dd bd
       -0.09238384 -0.12948763 -0.096693784 -0.10818684
000020 d0 b7 f8 3d c0 49 85 3b e2 c0 3c 3d 29 87 33 3d
       0.121444345 0.0040676296 0.046082385 0.04383007
000030 1b a3 54 3d b8 4b 23 be 9e 27 4b be c4 d7 1b 3d
       0.051913362 -0.15946853 -0.19839332 0.038047567
000040 ff 58 a1 3c 98 cd 14 be 37 fa 75 3d 98 9d 94 3d
       0.019695757 -0.14531553 0.060053077 0.07256621
000050 a8 db 4e bd bf a3 75 3d 1a 6f f1 3d fa 07 81 bd
       -0.05050245 0.059970614 0.11788769 -0.063003495
000060 8a 1a 80 bd 27 af 50 3d 17 3a dc bb 70 e4 7c bd
       -0.06255062 0.05094829 -0.006720792 -0.061741292
000070 c4 c8 dc 3d 58 80 80 bd ab fc 8c bc 9e 18 ac 3d
       0.107804805 -0.0627448 -0.017210325 0.08403133
000080 a9 77 6e 3c 33 cf c6 bc e4 97 f1 3d 74 21 7b bc
       0.014554896 -0.024268722 0.11796549 -0.0153278
000090 27 bd de 3c a0 30 10 be a1 f5 ae 3d 91 9f a5 3d
       0.027189804 -0.14081049 0.08542944 0.080870755
0000a0 0d 6d d0 3d 80 b8 c9 3d 4c 75 02 3e 4e 55 d8 3d
       0.1017705 0.09849644 0.12740058 0.105631456
0000b0 25 04 46 bd d2 f9 5a bd 41 f3 e0 3c b7 f3 4d bc
       -0.048343796 -0.053460903 0.027459743 -0.012570313
0000c0 ce 87 e1 3b 72 3f 80 bd 74 39 d4 bd fb 2f 8d 3d
       0.0068826443 -0.06262101 -0.10362521 0.06893917
0000d0 74 8d 8e bd cf a3 d8 3a 7c 1a 16 3e ba 57 d4 3d
       -0.06960574 0.0016528311 0.1465854 0.10368295
0000e0 7b db 6b 3b db 37 e8 3c 17 6a 16 be 34 38 70 3d
       0.0035988975 0.028346946 -0.14688908 0.05864735
0000f0 f2 35 0f 3e 74 25 9a 3d 13 ae da 3d 6d 40 c7 3c
       0.13985422 0.07526675 0.10677733 0.024322713
000100 eb 16 0a 3d a3 d2 92 bd 43 a1 f8 ba 9e bc 9e 3d
       0.033713263 -0.07169082 -0.0018968958 0.077508196
000110 0f 6a d2 3c 21 ef e9 bd 6b c7 db bd 94 03 26 3c
       0.025685338 -0.11422563 -0.10731395 0.010132689
000120 e9 4f 54 bd cc 18 2d 3e 41 50 96 bd 63 39 8f 3d
       -0.05183402 0.1690399 -0.07339526 0.069933675
000130 f3 e1 cc bd a3 b0 72 bd f1 f9 32 be 16 5d da bc
       -0.10004034 -0.059250485 -0.17478158 -0.026655715
000140 41 37 b7 bc 4d d7 2b 3d 7b 76 82 3e 39 4c 1d bd
       -0.022365214 0.041953374 0.25481018 -0.03840277
000150 4c 57 e5 3d 8f a0 f4 bc b7 7c 9d bc e5 e6 0e bc
       0.11198291 -0.029861717 -0.019224508 -0.008722042
000160 3c a1 67 3d 8b 3b 80 bd 05 a2 bc 3d 85 8e ab 3d
       0.05655025 -0.06261357 0.0921059 0.08376793
000170 9a cd 25 bd 7f 4b 3a 3d b9 8a 24 3d e3 00 8a bc
       -0.04047928 0.045482155 0.04017136 -0.016846126
000180 be 17 cb 3d c5 c6 f8 3b 7a 93 c6 3c 8b 28 2c be
       0.09916638 0.0075920545 0.024240244 -0.16812341
000190 da d1 80 3d f2 71 33 bd c6 07 b9 3d cf 20 28 3d
       0.06290026 -0.04380984 0.09034686 0.041046914
0001a0 31 61 29 be 92 8b 48 3d 5c ec d1 3b 90 b5 7d bd
       -0.16540982 0.04896123 0.00640635 -0.06194073
0001b0 4d 80 1d 3d c5 29 87 bd 65 6e 30 be 25 d4 05 3e
       0.038452435 -0.06599764 -0.17229612 0.13069208
0001c0 62 4a b7 3d cc 7c cd bd aa ba b5 3d eb 81 05 be
       0.08949734 -0.10033569 0.08873494 -0.13037841
0001d0 f5 f5 db 3d f5 fb 83 3d 84 7d b1 bd 2b dd 2b bc
       0.10740272 0.06444541 -0.08666518 -0.010489742
0001e0 a5 d8 17 bd cb 74 d2 bb 5c 20 b4 bb bc 44 a8 bd
       -0.037071843 -0.006422614 -0.0054970216 -0.08216235
0001f0 07 ef 53 be be 9f 75 3c 1d d7 48 bc a3 df b1 bd
       -0.2069665 0.014991699 -0.012258318 -0.086852334
000200 ea 0e 87 bd c8 8d e4 bd c6 c6 23 3c 97 1b 7a be
       -0.065946415 -0.11159855 0.009996122 -0.24424587
000210 3f 96 dd 3d 19 b2 4b bd e7 75 00 3d c7 74 c7 bd
       0.10819673 -0.049730394 0.03136244 -0.097390704
000220 f1 21 f4 bd 3b 5a 25 3d 84 72 e5 3d 1b 06 fe bc
       -0.11920536 0.040369254 0.11203483 -0.03100877
000230 84 34 ac bd 4c 63 32 bd 3a d2 c4 bd 4d 35 e6 3c
       -0.08408454 -0.043551728 -0.0961041 0.028101588
000240 16 f4 4f 3d 8e 61 d4 bd 97 cd 7b bd 73 07 b8 bd
       0.050769888 -0.103701696 -0.061475363 -0.08985796
000250 9e 13 3b bd 1e e9 5a 3d 9b 7c 8b 3d de 55 2b 3c
       -0.045673005 0.053444974 0.06810876 0.010457484
000260 ff 3e d1 bc ce f6 b0 bd 8a d7 c8 bd aa 20 e8 3d
       -0.025542734 -0.08640824 -0.09806736 0.11334355
000270 7c f1 58 3d 5d c9 0f 3e 2c 81 5c bd 87 3a 9a 3d
       0.052964672 0.14041658 -0.053834125 0.075306945
000280 ed 76 d7 bc c9 89 09 be 91 38 92 3c 98 90 67 bd
       -0.026301825 -0.13431467 0.017849239 -0.05653438
000290 03 13 f3 bc 97 2d ad 3d b4 d0 89 bd e1 43 05 bd
       -0.029672151 0.08455961 -0.0672926 -0.032535437
0002a0 2b 63 46 bd a2 82 54 3d f2 62 83 bd 80 5e c3 ba
       -0.048434418 0.051882394 -0.06415357 -0.0014905483
0002b0 df 89 b7 bd 66 fd f1 3b 6a f4 0c 3e 4d 04 6d bc
       -0.08961844 0.007384944 0.13765112 -0.014466357
0002c0 c4 e0 c4 3d 89 55 17 bd 94 2d ae 3c 36 02 b8 3d
       0.09613183 -0.036946807 0.021261968 0.08984797
0002d0 59 aa 78 bc 62 a5 c9 3d 3e 95 24 3e 7c 34 d0 bc
       -0.015177333 0.098459974 0.16072556 -0.025415652
0002e0 1b 9a 47 3d 8d a9 f7 3d d4 51 46 3d 32 f7 31 bd
       0.04873095 0.12092886 0.04841788 -0.043448634
0002f0 57 4c 22 bd bb 3b 07 be 16 5c 90 bc 67 e9 c4 bd
       -0.039623585 -0.13206379 -0.017622035 -0.096148305
000300 1e 1f e0 bd c3 e4 6e bd f0 59 b0 bd 46 5f 9d bc
       -0.10943435 -0.058323633 -0.08610904 -0.019210469
000310 d6 40 a5 3d 63 68 3f 3e d9 14 0c be 69 51 b0 bd
       0.08069007 0.18692164 -0.13679828 -0.08609278
000320 ed 78 73 bc 40 56 6f 3d 61 a0 13 be d2 c7 c2 bd
       -0.014860374 0.058431864 -0.14416648 -0.09510769
000330 2e d1 a6 bd a1 61 98 3d e2 e1 e7 bd 5f ed 12 3e
       -0.081453666 0.07440496 -0.113223806 0.14348362
000340 fc 27 05 3e ee 2e a5 3d bc 90 2a bd 66 9e 18 3c
       0.13003534 0.08065592 -0.041641936 0.009315109
000350 d6 be ce b9 65 6e c1 bd f4 a1 3d bd 84 7b 18 bd
       -0.00039433566 -0.09444884 -0.04629703 -0.03722717
000360 95 85 f4 bd 4e 16 c6 bd 41 7a bc 3d 0f 3c ff bd
       -0.11939541 -0.09672223 0.092030056 -0.12462627
000370 b0 92 67 3d a6 c9 01 bd a4 02 b2 3d 28 33 37 be
       0.056536376 -0.031686448 0.0869191 -0.17890608
000380 46 aa 19 3e b9 b8 e2 3c 2e 67 f8 bd f8 34 38 3e
       0.1500636 0.027675973 -0.12129055 0.17988956
000390 ef a1 b1 3d c9 58 c6 3c 9b c8 e6 bc 97 ef 98 bc
       0.086734645 0.024212258 -0.028171828 -0.018668933
0003a0 30 df 0d 3e 7e e1 49 3e e7 5c 12 bd 08 b4 4b bc
       0.1385467 0.19714925 -0.03573313 -0.0124330595
0003b0 72 18 25 be df 29 6e bd 2e 9a 82 bd c6 1a 66 3d
       -0.16122606 -0.0581454 -0.06377064 0.056177877
0003c0 24 71 d6 3d 80 7d 26 3d fd 10 8c bd 13 52 d9 3d
       0.104707986 0.04064703 -0.06839178 0.106113575
0003d0 ec 86 0f bc c6 ec 3a 3d bd e6 e0 3b 02 e5 1f 3e
       -0.008760195 0.04563596 0.0068634436 0.15614703
0003e0 77 a2 38 bc 41 86 86 3d 51 16 12 3d 6f 7c d3 bc
       -0.011269203 0.06568576 0.035665814 -0.02581617
0003f0 0d e6 d9 3d 14 3f 14 be 6f 52 49 bd b3 3f f1 3d
       0.10639582 -0.14477187 -0.04915088 0.11779728

bias f4 [64]
000000 0c 93 99 3c b6 8e ce bc e3 38 02 3b 56 af 0f 3e
       0.018746875 -0.025214534 0.0019870333 0.14031729
000010 db 81 93 3d ae a2 0d 3d 53 50 5e bd 43 98 c9 bd
       0.07202502 0.03457897 -0.054275822 -0.09843495
000020 a3 e9 56 bd 20 bf a5 bd d2 e6 d4 3d 51 a9 95 3d
       -0.052468907 -0.08093095 0.10395588 0.07307685
000030 cb ba 47 be c9 41 47 3d b6 b3 fa bd 86 c3 0d bd
       -0.1950485 0.048646722 -0.122413084 -0.034610294
000040 d0 1d 10 3d a5 29 07 be a8 c7 2b 3d 4d fb 33 3e
       0.03518468 -0.1319948 0.041938454 0.17576332
000050 a1 96 9c 3c 7f 6e dd 3d 01 2c 20 3e 6a 13 98 3e
       0.019114794 0.10812091 0.15641786 0.29702312
000060 06 b2 09 3e fa 8c ad bd 9e b0 00 3e 62 0e 61 bd
       0.13446817 -0.08474155 0.12567374 -0.054945357
000070 d2 38 bc 3c 92 fa 9d bd b7 b3 5a be 9a f8 3e 3e
       0.022976313 -0.07713808 -0.21357618 0.18649521
000080 09 1a 1e 3e 5a 0d 6b bd 9e d1 c4 bc 05 bc f1 bd
       0.15439619 -0.05738578 -0.024025735 -0.1180344
000090 f1 6c 90 3d 94 37 ab bc 5b 53 21 be ab 9f 06 bd
       0.07052029 -0.020900525 -0.15754454 -0.032867115
0000a0 f8 8c d0 bd 63 0b fd bd ca 6b ba bd 90 aa 89 3d
       -0.10183138 -0.123556875 -0.091025904 0.06721985
0000b0 be e0 7c 3e 5d 17 0f 3e 68 cb 66 3e 90 52 5b be
       0.24695107 0.13973756 0.22538531 -0.21418214
0000c0 d4 2e cb 3d 8d 4e 23 3c 0b d3 98 be 20 37 65 bc
       0.09921041 0.009967458 -0.29848513 -0.013990194
0000d0 c1 2a 3d 3e 41 02 4c 39 30 09 19 bc 23 d7 69 3d
       0.1847334 0.00019455796 -0.009340569 0.057089936
0000e0 fc 4d 93 3d c2 5d 9b 3b ca bd 94 3d 13 d7 cd 3d
       0.07192609 0.0047414014 0.07262762 0.10050788
0000f0 e6 e8 db 3c df 3b 2e be 31 f0 0a 3d 47 eb dc bd
       0.026844453 -0.17015027 0.03392047 -0.10787063

weight f4 [2, 64]
000000 d1 9d 42 3e 1d 27 c8 3d a2 49 9f be d7 99 93 be
       0.19005515 0.09773085 -0.31110865 -0.28828308
000010 f5 a7 12 be 92 cb b6 3e fd 8c 6b 3e b6 11 ff 3e
       -0.14321883 0.35702187 0.23003002 0.498182
000020 af 19 9f 3e b5 9e 54 be 8c 94 44 be 10 c0 db bc
       0.31074283 -0.20763667 -0.19197291 -0.026824981
000030 c7 12 0e 3e 09 3a 64 be f4 14 05 be 1b d5 ba 3e
       0.1387435 -0.22287764 -0.12996274 0.36490712
000040 f8 cd bb bd a6 72 6b 3e 57 99 02 bf 3e 3b ff be
       -0.09170145 0.22992954 -0.5101523 -0.49849886
000050 84 26 a0 bd 50 20 44 bd 75 14 cb be b4 af 93 be
       -0.07819846 -0.047882378 -0.39664045 -0.28844988
000060 ab 6b 98 be 8b d3 eb bd fa 66 8b bd f2 d8 09 bf
       -0.29769644 -0.11514958 -0.068067506 -0.5384666
000070 f3 28 04 bf 50 75 84 3e 2d 9f 5a 3e 4c 35 8a be
       -0.51624984 0.25870752 0.21349783 -0.26993787
000080 1c 59 4f be 3f af 1c 3e e6 5d 28 3e 54 03 65 3d
       -0.20248836 0.15301226 0.1644207 0.055911377
000090 b7 0b 84 be b1 41 71 3e f2 d5 78 3e 95 5c 97 3d
       -0.25790188 0.23560216 0.24300364 0.073907055
0000a0 fd f6 a6 3e de 0d 6b 3d d5 b5 f8 3d 25 4f a5 bd
       0.32610312 0.05738627 0.12144057 -0.08071736
0000b0 e5 1d a6 be f3 05 f6 be 9e e5 55 be e7 9d 88 3e
       -0.32444683 -0.48051414 -0.20888373 0.2668297
0000c0 96 bb 74 be d5 0e a7 be ab 1b 0c 3f 0f 01 02 be
       -0.23899683 -0.32628503 0.5472972 -0.12695716
0000d0 58 b9 e2 be 3f d8 c9 bd 4c 42 3f be ab 6b f2 3c
       -0.4428203 -0.09855699 -0.18677634 0.029592356
0000e0 d3 1e 2b 3d ff 2f 3e 3e 81 6c b2 3e bc 5f 50 be
       0.041777443 0.18572997 0.34848407 -0.2034902
0000f0 da 3b 48 bd ea e4 0d 3e 7c 4b 77 3e 3d e4 72 3e
       -0.048885204 0.13856855 0.24149889 0.23719878
000100 9f 06 2a be dc 99 3d be 36 c5 03 3e 5f a4 3c 3e
       -0.16604088 -0.18515724 0.12868199 0.18422078
000110 7f 03 9a 3e cf 55 3c be 4c 45 0d 3b e9 53 db be
       0.30080792 -0.18392108 0.0021556197 -0.42837456
000120 b5 c1 f8 bd 24 6c 3f 3e 2f 1a 9c 3d 47 71 1d 3e
       -0.12146322 0.18693596 0.076221816 0.15375243
000130 b5 a7 0d be e9 09 0c 3e 67 f3 1f 3e 9c 19 a4 be
       -0.13833506 0.13675655 0.15620194 -0.32050788
000140 42 e8 4b 3e a9 d1 81 be 71 6c f0 3e f0 e2 ee 3e
       0.19912818 -0.2535527 0.46957734 0.46657515
000150 18 ba c0 3b 11 1b f6 3d 88 ce e5 3e 79 81 b3 3e
       0.005881559 0.12016881 0.44884133 0.35059717
000160 7a 6c 76 3e b3 e4 b5 3d 5b ae a8 3d e2 d7 11 3f
       0.24064818 0.088815115 0.08236381 0.56970036
000170 65 89 f4 3e de b2 da bd 3a 4d 96 be 14 7f c7 3e
       0.47761074 -0.106786475 -0.29355794 0.3896414
000180 aa 5a 31 3e 23 3f 61 be af 36 ba bd 62 96 ff bd
       0.17319742 -0.21996741 -0.09092461 -0.12479855
000190 63 53 82 3e 69 dc 99 be 96 fb 20 be d9 bf 4a be
       0.25454244 -0.30050972 -0.15720972 -0.19799747
0001a0 0f 72 7c be 14 92 71 be 34 37 af 3c 17 b5 23 3e
       -0.24652885 -0.2359088 0.021388628 0.15987049
0001b0 72 67 9c 3e 31 cf d3 3e 03 44 21 3e 04 67 72 be
       0.30547673 0.41369012 0.157486 -0.2367211
0001c0 53 1e 3c 3d 2c 93 56 3e 05 5b 0b bf 9e 0b 95 bc
       0.045927357 0.20954579 -0.5443576 -0.018194016
0001d0 c3 7a d7 3e 27 19 49 3d 36 38 52 3e 6d 94 bc 3d
       0.42085847 0.049096253 0.20529255 0.092079975
0001e0 5d 19 df 3d f7 aa 0d be 35 39 b5 be c0 c7 24 3e
       0.108935095 -0.13834749 -0.35395208 0.16091824
0001f0 97 ff 35 3e 37 47 95 be 7c fe 2d be 92 8a 48 be
       0.17773281 -0.29155895 -0.1699161 -0.1958411

bias f4 [2]
000000 b6 79 18 bf 7d 24 2c 3f
       -0.59560716 0.67243177
