model/model_with_Softmax_1.pth (torch, 22039 bytes, 6 tensors)

weight f4 [64, 7]
0.4336867 -0.1986382 -0.8773881 0.19160266 0.21177956 0.2193497 -0.0031576732 -0.7164763
0.59824497 0.31536162 -0.22502744 -0.23174341 0.22836581 0.13535704 0.17448026 0.15696847
0.47110552 0.1707935 0.40961584 -0.9921427 -0.48221272 -0.45693615 -0.7479611 0.1077325
-0.15052243 0.70824 -0.5577733 -0.29941747 -0.027259657 -0.6520161 0.4162524 -0.4325833
0.5209252 -0.6803494 -0.08799773 0.93479186 -0.09094743 0.5357184 -1.0951134 -0.43406817
0.07886614 0.13901563 0.27812457 -0.14555807 -0.026907502 0.14914 -0.3709253 0.21384671
-0.04957682 -0.034180336 0.8510347 0.8206939 -0.58213264 0.09806215 -0.089662835 -0.24558835
-0.11047102 0.10206477 0.18289146 -0.09071052 -0.13523945 -0.06895931 -0.055288665 -0.08916205
-0.27648723 -0.18147153 -0.21384393 0.16659725 -0.123059236 -0.28760642 -0.27859855 0.42268556
-0.03741574 -0.14199501 -0.50172675 0.5514974 -0.8628601 -0.57541645 -0.4725004 0.5828948
-0.42207867 -0.23438445 0.48003232 0.4016277 -0.19442232 0.44970572 0.6639363 0.030279893
-0.18778397 -0.9937081 0.24788366 -0.29433683 0.37601408 0.43890947 0.51463145 -0.67524046
0.13777098 -0.2746521 -0.31400794 0.27603707 0.20808873 -0.3473826 -0.33962917 -0.25317353
-0.18997349 -0.106781654 -0.03766914 -0.36834767 -0.5990871 -0.7052934 0.07826582 0.20277044
0.4317636 0.45201588 -0.29553828 0.0644347 -0.2807749 -0.40155295 -0.4728112 0.3273214
-0.27755067 0.2498211 0.16403696 -0.49293336 -0.1124639 -0.3402737 0.738139 0.15960068
-0.30815554 0.19426471 -0.01762219 -0.080467 -0.3553979 -0.9241369 0.8420715 -0.05870381
-0.6385038 0.23598 0.24531001 0.11843997 0.3952785 1.1700313 -1.2906092 -0.21937044
-0.06748118 0.23505297 0.01610287 0.5172398 0.25826916 -0.8308772 0.70360965 -0.08413949
-0.09965521 -0.06609417 -0.2519315 0.0337933 0.12502483 0.0614219 -0.080976576 -0.2750541
-0.25303397 -0.32368678 0.35944417 0.0036239016 0.27344927 -0.4218938 -0.22398031 0.17312054
-0.32530457 -0.3520037 0.018624216 -0.25871897 -0.25896674 -0.34328473 -0.14388002 -0.4719517
-0.49928892 0.32140368 -0.07568965 -0.09797487 0.4978661 -0.045339532 0.57159877 0.261952
-0.26576596 -0.314297 0.30006376 -1.0338265 0.011269788 0.170373 -0.22225115 -0.33750972
0.29966983 0.117565505 0.04134264 0.02025955 0.0074028145 1.2527714 -1.1369138 -0.8376053
0.2008762 0.029128637 0.07370418 0.39512306 0.0090725375 0.2629608 -0.24785171 -0.4228474
0.27175093 -0.34826794 0.60894525 0.31397727 -0.16775705 -0.7919406 0.11004689 0.18435094
-0.08541229 -1.0284842 0.42857152 -0.98849624 1.1220367 0.32383147 0.27935058 -0.053328883
-0.18092176 -0.46243328 -0.99107575 -0.7732736 0.4513202 -0.38027364 0.22697903 -0.4464312
-0.16991158 1.070399 -0.049826898 0.28518188 -0.29599547 -0.055928245 0.8637998 0.18821263
0.34151694 -0.6990334 0.08365047 0.032835983 -0.380742 0.45954937 -0.15633373 -0.2669952
-0.8396268 0.27529836 -0.55738634 0.3329662 -0.8738869 -0.5115668 1.1826501 -0.05354056
00000000: 2f0c de3e d067 4bbe 829c 60bf 7d33 443e
00000010: bedc 583e 359d 603e f7f0 4ebb fe6a 37bf
00000020: 9526 193f 1477 a13e 986d 66be 254e 6dbe
00000030: bad8 693e 099b 0a3e f4aa 323e 58bc 203e
00000040: be34 f13e 7ee4 2e3e 2bb9 d13e 10fd 7dbf
00000050: 96e4 f6be 89f3 e9be 617a 3fbf dba2 dc3d
00000060: 8d22 1abe 374f 353f 3bca 0ebf 3f4d 99be
00000070: a54f dfbc 87ea 26bf 091f d53e 8f7b ddbe
00000080: 5b5b 053f 612b 2ebf 2738 b4bd 854e 6f3f
00000090: a542 babd d724 093f ad2c 8cbf 2f3e debe
000000a0: 9284 a13d 1d5a 0e3e 5866 8e3e 2d0d 15be
000000b0: 1f6d dcbc 28b8 183e ece9 bdbe a2fa 5a3e
000000c0: 1011 4bbd ae00 0cbd 69dd 593f ff18 523f
000000d0: a506 15bf cfd4 c83d 26a1 b7bd 837b 7bbe
000000e0: a13e e2bd 5607 d13d e647 3b3e 70c6 b9bd
000000f0: 367c 0abe 8a3a 8dbd 5e76 62bd 989a b6bd
00000100: bc8f 8dbe acd3 39be e7f9 5abe 7898 2a3e
00000110: 7b06 fcbd 2641 93be 78a4 8ebe 3e6a d83e
00000120: 3f41 19bd 2467 11be 2a71 00bf ef2e 0d3f
00000130: 66e4 5cbf 7e4e 13bf 93eb f1be 9838 153f
00000140: b21a d8be 7a02 70be ccc6 f53e 25a2 cd3e
00000150: a516 47be d43f e63e bbf7 293f 8a0d f83c
00000160: 714a 40be a763 7ebf 37d5 7d3e 51b3 96be
00000170: eb84 c03e beb8 e03e e3be 033f 8fdc 2cbf
00000180: d613 0d3e 339f 8cbe a6c5 a0be bb54 8d3e
00000190: 3615 553e 22dc b1be e0e3 adbe f69f 81be
000001a0: 6988 42be 57b0 dabd f54a 1abd 1198 bcbe
000001b0: c65d 19bf 1c8e 34bf d549 a03d 0ea3 4f3e
000001c0: 1e10 dd3e a06e e73e cb50 97be 57f6 833d
000001d0: bac1 8fbe 5998 cdbe 4f14 f2be ac96 a73e
000001e0: 1f1b 8ebe 1ad1 7f3e 4ef9 273e c361 fcbe
000001f0: 7953 e6bd 5b38 aebe adf6 3c3f 5c6e 233e
00000200: 90c6 9dbe 54ed 463e 695c 90bc e2cb a4bd
00000210: b7f6 b5be 3c94 6cbf ff91 573f 6873 70bd
00000220: fc74 23bf bea4 713e 8c32 7b3e a890 f23d
00000230: f261 ca3e 96c3 953f af32 a5bf a5a2 60be
00000240: 9333 8abd bab1 703e 2bea 833c d469 043f
00000250: db3b 843e 5eb4 54bf c31f 343f 5351 acbd
00000260: 0818 ccbd 615c 87bd 2afd 80be d86a 0a3d
00000270: 8206 003e 8895 7b3d 0cd7 a5bd e4d3 8cbe
00000280: ab8d 81be 46ba a5be 1109 b83e fb7e 6d3b
00000290: 8b01 8c3e 7702 d8be 185b 65be 8346 313e
000002a0: 528e a6be d439 b4be d091 983c d076 84be
000002b0: 4a97 84be 04c3 afbe 4955 13be a7a3 f1be
000002c0: cca2 ffbe 068f a43e 2d03 9bbd 0ca7 c8bd
000002d0: 4ee8 fe3e f2b5 39bd 4c54 123f 931e 863e
000002e0: 7a12 88be 89eb a0be f5a1 993e 6d54 84bf
000002f0: eba4 383c 4276 2e3e ce95 63be 13ce acbe
00000300: 536e 993e 2fc6 f03d e656 293d 5bf7 a53c
00000310: 4f93 f23b d05a a03f 6486 91bf 4d6d 56bf
00000320: 7eb2 4d3e 2e9f ee3c 38f2 963d 924d ca3e
00000330: fba4 143c cca2 863e d7cc 7dbe 747f d8be
00000340: f022 8b3e 2d50 b2be d6e3 1b3f a1c1 a03e
00000350: 81c8 2bbe 9fbc 4abf 4460 e13d 7ec6 3c3e
00000360: a4ec aebd 5fa5 83bf ba6d db3e 170e 7dbf
00000370: e69e 8f3f 3dcd a53e 0a07 8f3e 636f 5abd
00000380: 8e43 39be 0ec4 ecbe 24b7 7dbf 42f5 45bf
00000390: 7113 e73e 3ab3 c2be 316d 683e a192 e4be
000003a0: 4dfd 2dbe d602 893f 4a17 4cbd 5c03 923e
000003b0: b88c 97be 0415 65bd fc21 5d3f d0ba 403e
000003c0: 4fdb ae3e daf3 32bf f050 ab3d 067f 063d
000003d0: 9ef0 c2be 0e4a eb3e f315 20be 98b3 88be
000003e0: c8f1 56bf e8f3 8c3e dfb0 0ebf 8c7a aa3e
000003f0: 0db7 5fbf 0bf6 02bf 1461 973f 594d 5bbd

bias f4 [64]
0.0034271241 0.30994067 -0.06667387 0.16947486 0.32251278 0.35991114 -0.2829928 -0.09241586
0.014489202 -0.2751295 -0.3359968 0.35467127 -0.18706955 -0.009424531 0.026088774 -0.16034424
0.12780634 0.1703023 -0.3609362 0.091702044 0.14845735 -0.2521169 -0.06195441 0.09757704
0.13859048 -0.176524 0.12291954 -0.08003119 -0.1257282 -0.27034733 0.33266544 -0.20578381
0.1289482 -0.22930579 0.30525696 0.24627328 0.36445644 -0.36152524 -0.23400933 0.3532742
-0.27950802 -0.29697207 -0.1787272 0.09287353 -0.033714473 0.35531902 -0.13395287 -0.18940456
-0.07308653 0.31740704 -0.29300794 -0.114247344 0.32099664 0.33213574 0.044644985 -0.205328
0.28737223 0.1068563 0.08001985 -0.077106215 -0.2552979 0.2700798 0.03880427 0.13924395
00000000: 9a99 603b 8bb0 9e3e 4f8c 88bd d18a 2d3e
00000010: 6520 a53e 4646 b83e 6fe4 90be 8744 bdbd
00000020: 1e64 6d3c c6dd 8cbe c607 acbe 7997 b53e
00000030: 298f 3fbe 5969 1abc 20b8 d53c 4831 24be
00000040: aadf 023e ba63 2e3e a1cc b8be 48ce bb3d
00000050: 3405 183e 7715 81be e8c3 7dbd 79d6 c73d
00000060: aaea 0d3e b5c2 34be 3dbd fb3d 64e7 a3bd
00000070: e5be 00be f76a 8abe 2053 aa3e feb8 52be
00000080: ff0a 043e 23cf 6abe a44a 9c3e 102f 7c3e
00000090: 099a ba3e d619 b9be 24a0 6fbe 5be0 b43e
000000a0: ad1b 8fbe b90c 98be 4304 37be 7a34 be3d
000000b0: 3018 0abd 60ec b53e f12a 09be 45f3 41be
000000c0: 64ae 95bd 2d83 a23e 2305 96be 83fa e9bd
000000d0: ac59 a43e b20d aa3e a9dd 363d 8141 52be
000000e0: 7422 933e 7ad7 da3d 72e1 a33d dde9 9dbd
000000f0: 68b6 82be e647 8a3e 3af1 1e3d f795 0e3e

weight f4 [64, 64]
-0.12535143 0.19017534 0.098895445 -0.088072255 -0.06927246 0.07163124 0.19480237 0.28836194
0.032847553 -0.0042959233 -0.23594162 0.028382007 -0.122181006 0.43062323 -0.102597415 -0.04343668
0.08230591 0.13516037 0.030712297 -0.13317983 -0.0475887 -0.09994284 -0.107542664 -0.08196933
-0.09655362 0.012701801 0.006565558 -0.15648884 0.050458178 0.12741126 -0.035719465 -0.16066615
-0.09267069 -0.3618172 0.1952723 -0.32504627 0.06615243 0.16562118 -0.046033584 0.29117975
-0.08525331 -0.04061735 -0.047179084 0.21167263 -0.110528484 0.09181762 -0.24742419 -0.19179836
0.23410088 0.0054772794 -0.27596065 0.026467618 0.047406506 -0.15924981 0.037355047 -0.2029992
-0.016806703 0.06654634 -0.012761934 0.020488689 -0.09105286 -0.09779912 -0.016600287 -0.033782575
-0.050307512 0.013982309 -0.16980086 0.21189372 0.15024164 -0.011845472 0.007131836 -0.3560289
0.10701431 0.012619593 -0.10646494 -0.0152825145 -0.06964333 -0.10422962 -0.035833403 0.0664013
-0.048956648 0.034493417 -0.024101624 -0.05881546 -0.23255467 -0.072038405 -0.03546673 0.03650304
0.054774508 -0.062601835 0.022226796 -0.09345722 -0.17908692 0.017119303 -0.11721792 -0.17609604
-0.0041856444 0.0050610807 -0.10650367 0.160207 0.19520931 -0.13037914 0.0488565 -0.1504241
-0.18590313 -0.011269375 -0.032939244 -0.13229853 0.08663054 -0.07464316 -0.084224395 -0.17400865
0.00844457 -0.09708426 0.06532204 -0.06827364 0.04228605 0.007957314 0.049227297 -0.16129535
-0.11305693 0.10178036 0.10415118 -0.015662754 -0.1621033 0.14756556 -0.26316652 -0.32526314
0.12193573 -0.24974744 -0.23076199 0.08170531 0.017578008 0.04115489 -0.06963383 -0.39892027
0.119580105 0.02328053 -0.03527708 0.09528146 -0.23271675 0.043872874 -0.118007705 -0.11560041
0.105930924 0.0801878 -0.078573145 -0.050129868 -0.18353213 -0.17717363 -0.069109574 -0.09454475
0.012224689 -0.07554666 -0.23362677 0.1148578 0.057109214 -0.0471693 -0.00019428978 0.06321436
0.09380686 0.035274416 0.0054592784 0.014211177 -0.090360925 -0.019108364 0.021764085 -0.05033218
-0.12014201 -0.085033834 -0.06911136 -0.0024230382 -0.0074650496 -0.121777944 -0.10123274 -0.0008699944
-0.10903008 0.06083513 -0.09763996 0.048180904 -0.10199427 -0.07828055 0.054752234 0.0060473457
-0.022040699 -0.09183081 0.09671301 -0.09437515 0.03276555 0.03738142 -0.20966944 -0.16653156
-0.0073241726 -0.023163429 0.09233742 -0.044428017 0.0014897629 0.02222996 0.10150759 -0.13923857
-0.061364368 -0.055003688 0.07008029 0.046557866 -0.03563914 -0.013175111 0.06800823 -0.08303228
0.06965856 -0.065746725 0.049849782 0.0037729647 -0.025603669 0.061678685 -0.015181512 -0.1051261
-0.0890332 0.06376082 0.029220892 0.0141485995 0.065268986 0.09606844 -0.034935262 -0.04036128
0.02810817 0.09614772 0.00058095035 -0.0586938 -0.019111317 -0.13256244 -0.15986413 0.004125308
-0.124951124 0.01879979 -0.07192499 0.053058323 -0.12286571 -0.06299329 0.0029827666 0.09529249
0.017546609 0.002979208 0.038850926 -0.116339825 0.11450036 -0.050740622 0.11107721 0.01468211
-0.09032774 -0.08382302 -0.060454004 0.012123495 -0.039654206 0.012000957 0.067619845 -0.10414821
00000000: 205c 00be 53bd 423e b289 ca3d 3a5f b4bd
00000010: b8de 8dbd 66b3 923d 467a 473e 2da4 933e
00000020: 288b 063d d1c4 8cbb ae9a 71be 6281 e83c
00000030: 093a fabd a67a dc3e 981e d2bd a9ea 31bd
00000040: 0090 a83d 7b67 0a3e 5b98 fb3c 4b60 08be
00000050: 5eec 42bd d5ae ccbd 543f dcbd 89df a7bd
00000060: e8bd c5bd 371b 503c e423 d73b 9c3e 20be
00000070: 3cad 4e3d 1978 023e 934e 12bd ab85 24be
00000080: 21ca bdbd 1b40 b9be 76f5 473e 776c a6be
00000090: ed7a 873d 9998 293e b68d 3cbd 8315 953e
000000a0: 4a99 aebd 615e 26bd db3e 41bd b6c0 583e
000000b0: c25c e2bd e00a bc3d c45c 7dbe ca66 44be
000000c0: 24b8 6f3e c07a b33b b74a 8dbe 9ed2 d83c
000000d0: 532d 423d 6212 23be 9b01 193d 06df 4fbe
000000e0: 36ae 89bc 7349 883d 6e17 51bc e5d7 a73c
000000f0: ec79 babd e84a c8bd 53fd 87bc 995f 0abd
00000100: 400f 4ebd 0e16 653c 47e0 2dbe abfa 583e
00000110: f2d8 193e 8313 42bc 2db2 e93b 6c49 b6be
00000120: 522a db3d 69c2 4e3c 4a0a dabd 8363 7abc
00000130: 2aa1 8ebd 5776 d5bd 0cc6 12bd 68fd 873d
00000140: c486 48bd f848 0d3d c570 c5bc 7be8 70bd
00000150: d022 6ebe df88 93bd 9045 11bd 3684 153d
00000160: 3c5b 603d 6435 80bd f814 b63c 8066 bfbd
00000170: 9062 37be c83d 8c3c f30f f0bd 8552 34be
00000180: bb27 89bb 6cd7 a53b 991e dabd 4e0d 243e
00000190: f3e4 473e 1c82 05be c11d 483d c608 1abe
000001a0: 645d 3ebe 2fa3 38bc 4deb 06bd 4479 07be
000001b0: 5a6b b13d 83de 98bd d77d acbd 532f 32be
000001c0: 185b 0a3c 1dd4 c6bd 90c7 853d 0dd3 8bbd
000001d0: 2334 2d3d 655f 023c 90a2 493d 9c2a 25be
000001e0: 648a e7bd 3972 d03d 374d d53d 2d4f 80bc
000001f0: 68fe 25be 6d1b 173e c3bd 86be e488 a6be
00000200: 71b9 f93d cbbd 7fbe df4c 6cbe 1d55 a73d
00000210: c1ff 8f3c 0892 283d 2e9c 8ebd 473f ccbe
00000220: 6ae6 f43d cfb6 be3c b37e 10bd ed22 c33d
00000230: 4d4d 6ebe 0bb4 333d 06ae f1bd e8bf ecbd
00000240: 50f2 d83d 8039 a43d f5ea a0bd fa54 4dbd
00000250: d9ef 3bbe 016d 35be 5289 8dbd aea0 c1bd
00000260: 104a 483c 35b8 9abd db3b 6fbe 913a eb3d
00000270: 5aeb 693d 9934 41bd 44ba 4bb9 8876 813d
00000280: d01d c03d e87b 103d bfe3 b23b ffd5 683c
00000290: 260f b9bd 2589 9cbc 984a b23c 1e29 4ebd
000002a0: 040d f6bd 3826 aebd 428a 8dbd d6cb 1ebb
000002b0: 609d f4bb b766 f9bd 1c53 cfbd 5610 64ba
000002c0: 2a4b dfbd 422e 793d 76f7 c7bd 5759 453d
000002d0: 5fe2 d0bd 8e51 a0bd e143 603d d028 c63b
000002e0: b28e b4bc cb11 bcbd 7811 c63d c247 c1bd
000002f0: 2b35 063d 431d 193d 96b3 56be 4087 2abe
00000300: 9dff efbb 3bc1 bdbc 671b bd3d 27fa 35bd
00000310: 2644 c33a 9b1b b63c 36e3 cf3d 8e94 0ebe
00000320: 3459 7bbd 8c4b 61bd 4186 8f3d 76b3 3e3d
00000330: 59fa 11bd 6cdc 57bc e647 8b3d d40c aabd
00000340: 26a9 8e3d 38a6 86bd 492f 4c3d d843 773b
00000350: c9be d1bc caa2 7c3d e0bb 78bc 5a4c d7bd
00000360: 0a57 b6bd 0895 823d a760 ef3c 87cf 673c
00000370: bfab 853d 88bf c43d 4718 0fbd df51 25bd
00000380: 1b43 e63c 19e9 c43d eb4a 183a e968 70bd
00000390: 568f 9cbc 73be 07be 6cb3 23be 972d 873b
000003a0: 60e6 ffbd 0402 9a3c 694d 93bd af53 593d
000003b0: 04a1 fbbd a002 81bd 857a 433b b628 c33d
000003c0: e8bd 8f3c d13e 433b 2622 1f3d 9343 eebd
000003d0: 2a7f ea3d 66d5 4fbd 737c e33d 3c8d 703c
000003e0: c0fd b8bd 67ab abbd 9e9e 77bd a0a1 463c
000003f0: 736c 22bd a99f 443c 467c 8a3d a84b d5bd

bias f4 [64]
0.10791559 0.105732076 -0.09007779 -0.10816135 -0.029210167 0.05916133 -0.072551295 -0.025747951
-0.11796437 0.12790634 -0.013068537 -0.029967617 -0.045960166 -0.095941655 0.3028788 -0.09367822
0.044592563 -0.09427591 -0.04631247 -0.08320217 -0.086340725 0.015819985 0.04851902 0.013064343
0.033703193 -0.055610213 0.003600034 -0.10731415 0.005590235 0.053266678 -0.12012584 0.08739302
-0.08261591 0.3282209 -0.08704268 -0.24449156 -0.07472326 -0.09957912 -0.037512787 0.10605215
0.07610486 0.16457951 -0.0052748863 0.09058449 0.09431657 0.09279428 -0.027358951 0.10462784
0.07331903 -0.099007554 0.066867456 0.067827456 -0.10215684 0.048248935 0.17749558 0.11085236
-0.08376349 -0.025152193 0.024833668 -0.044076916 -0.011285949 -0.022318233 0.04674998 -0.08895232
00000000: d902 dd3d 0f8a d83d b47a b8bd b383 ddbd
00000010: 294a efbc 2753 723d c695 94bd 5eed d2bc
00000020: 4e97 f1bd e1f9 023e 6b1d 56bc a67e f5bc
00000030: ba40 3cbd 0f7d c4bd ee12 9b3e 5eda bfbd
00000040: b1a6 363d ba13 c1bd 25b2 3dbd e665 aabd
00000050: 68d3 b0bd ea98 813c e1bb 463d d30b 563c
00000060: 5c0c 0a3d 89c7 63bd 8cee 6b3b 85c7 dbbd
00000070: 4a2e b73b 292e 5a3d 8904 f6bd 1dfb b23d
00000080: 8832 a9bd 920c a83e 6f43 b2bd ff5b 7abe
00000090: 8208 99bd 23f0 cbbd 02a7 19bd df31 d93d
000000a0: dddc 9b3d 8887 283e f4d8 acbb 5c84 b93d
000000b0: 0c29 c13d ed0a be3d e11f e0bc 1f47 d63d
000000c0: 4a28 963d 79c4 cabd cef1 883d 1fe9 8a3d
000000d0: 9b37 d1bd ada0 453d 67c1 353e 9006 e33d
000000e0: 318c abbd f90b cebc fa6f cb3c ff89 34bd
000000f0: b3e8 38bc bad4 b6bc e87c 3f3d a22c b6bd

weight f4 [2, 64]
-0.074955806 0.25443152 0.29596838 -0.022981593 0.45358247 -0.13820857 0.039875276 -0.0082136905
0.32144386 -0.26945528 0.038311172 -0.44413537 0.37618193 0.5084207 -0.15602414 0.24078621
0.6125348 0.17452653 0.43009895 -0.005037695 0.16346273 0.23695835 -0.51918346 0.35025948
-0.22203623 0.2970296 0.17004049 0.2357564 -0.19683866 0.11311589 -0.172527 -0.65355366
0.15933794 -0.26998395 -0.015032765 0.37213245 0.38340962 0.10948364 -0.45096543 0.054247025
-0.17881323 -0.2358469 0.30779514 0.046482697 -0.77074295 -0.096017435 0.06935975 0.056174677
-0.4514488 0.16354795 0.15886378 0.3574125 0.10605881 -0.15385455 -0.34906664 0.20253953
0.023954153 0.12757714 0.19422095 0.16395396 0.29927978 -0.2650018 -0.3958153 0.1813536
0.2735393 -0.2319987 -0.22666663 0.16980503 -0.60936147 0.2434959 -0.23528157 0.08176371
-0.22604525 0.32699716 -0.22853076 0.38401163 -0.37804586 -0.33519644 0.26283732 -0.26010352
-0.6483305 -0.21070343 -0.3703901 -0.13445851 -0.14004509 -0.04592006 0.3158511 -0.16945177
0.18467367 -0.28510872 -0.23631682 -0.3655307 0.11183042 -0.21723574 -0.02331919 0.6901639
-0.050462928 0.18242446 0.048816565 -0.2867211 -0.36453137 -0.06185194 0.45554742 -0.055184342
0.23381712 0.31550282 -0.14993063 0.027074125 0.7149245 0.22568648 -0.09971225 -0.059782773
0.521732 0.08251956 -0.088100195 -0.27059367 0.039452814 0.13073364 0.2910767 -0.17557973
0.079742044 -0.036543094 -0.061168943 -0.08684776 -0.3391613 0.2981828 0.39316067 -0.2452198
00000000: 6e82 99bd d944 823e 2b89 973e e543 bcbc
00000010: f63b e83e 8c86 0dbe 4254 233d b792 06bc
00000020: 4a94 a43e 0bf6 89be 2dec 1c3d b665 e3be
00000030: eb9a c03e dc27 023f cbc4 1fbe a990 763e
00000040: 15cf 1c3f 15b7 323e ee35 dc3e 4013 a5bb
00000050: c662 273e 36a5 723e 35e9 04bf 3655 b33e
00000060: 775d 63be 4414 983e 181f 2e3e 206a 713e
00000070: 1390 49be 4ea9 e73d ebaa 30be 4b4f 27bf
00000080: 7c29 233e 563b 8abe fd4b 76bc 2588 be3e
00000090: 444e c43e f538 e03d f1e4 e6be 2132 5e3d
000000a0: d11a 37be da81 71be 5397 9d3e a464 3e3d
000000b0: 694f 45bf caa4 c4bd 7c0c 8e3d 6b17 663d
000000c0: 4c24 e7be 1d79 273e 30ad 223e c5fe b63e
000000d0: 5d35 d93d 0c8c 1dbe ddb8 b2be 8666 4f3e
000000e0: 803b c43c 95a3 023e dbe1 463e 8ce3 273e
000000f0: 333b 993e 51ae 87be 4ea8 cabe c2b4 393e
00000100: 580d 8c3e 1191 6dbe 4c1b 68be 5fe1 2d3e
00000110: 1dff 1bbf fd56 793e a7ed 70be bb73 a73d
00000120: 6878 67be 2c6c a73e f803 6abe 2c9d c43e
00000130: 3a8f c1be de9e abbe 9d92 863e 4a2c 85be
00000140: fdf8 25bf a4c2 57be c5a3 bdbe 7eaf 09be
00000150: fb67 0fbe ac16 3cbd 3cb7 a13e c484 2dbe
00000160: 181b 3d3e c5f9 91be 09fd 71be d726 bbbe
00000170: 5907 e53d 0c73 5ebe e307 bfbc 95ae 303f
00000180: 37b2 4ebd 7acd 3a3e e1f3 473d 1ccd 92be
00000190: dba3 babe 7658 7dbd 833d e93e fa08 62bd
000001a0: c16d 6f3e 9689 a13e 6a87 19be 8eca dd3c
000001b0: 4b05 373f 5b1a 673e f035 ccbd c8de 74bd
000001c0: 3a90 053f 0400 a93d e06d b4bd 418b 8abe
000001d0: 4699 213d 0adf 053e 0108 953e 2ccb 33be
000001e0: cc4f a33d 36ae 15bd 498c 7abd 3ddd b1bd
000001f0: 8da6 adbe 6aab 983e 5b4c c93e e61a 7bbe

bias f4 [2]
-1.3582567 1.4099569
00000000: 5bdb adbf 7879 b43f
