model/model_with_Softmax.pth (torch, 56327 bytes, 10 tensors)

weight f4 [64, 7]
000000 a5 fc 53 3f 1b 81 0e 3f ec d9 7e 3b b6 f7 95 3c
       0.8280738 0.5566575 0.0038887216 0.018306594
000010 3d 9f 17 bf b9 c8 43 bd 7c 19 d4 be 01 06 7d 3f
       -0.59227353 -0.047798846 -0.41425693 0.98837286
000020 83 f3 33 3f ed db 6d bd 6f cf 8a bf 49 c9 8c 3d
       0.70293444 -0.058071066 -1.0844554 0.068743296
000030 af 8a 75 3c 65 cc b6 bd bb 4d c1 3d 60 09 3a 3e
       0.014986678 -0.08925704 0.09438654 0.18167639
000040 41 54 26 be 4f 87 19 3e 8d f4 6c bd 34 5c 44 be
       -0.16243078 0.14993022 -0.05785041 -0.19175798
000050 89 6d 94 be 99 c3 62 3b 22 eb 33 3f dc 2e 5a 3e
       -0.2898982 0.0034601449 0.7028066 0.21306938
000060 fd 18 2a 3f 42 8c ad bf b9 62 cc be 96 1b ff 3d
       0.6644438 -1.3558428 -0.3991907 0.124564335
000070 6e 14 a8 be cf 35 61 bd 7a 5f be 3d ef 09 d9 bb
       -0.32828087 -0.054982956 0.092955545 -0.0066234986
000080 f5 7c bd be 14 90 a0 3e 8f 6a 77 3d 1f ac c1 3e
       -0.37009397 0.31359923 0.060404357 0.3782663
000090 70 1a 73 3e 29 fc b4 3e b8 a8 cc 3d 69 a4 ee bd
       0.23740554 0.35348633 0.09993118 -0.116524525
0000a0 0c 5a 88 be 1c 27 01 be 36 71 4f 3d 31 4b 2d bf
       -0.266312 -0.12612575 0.050645076 -0.6769286
0000b0 b3 19 25 3f 54 e8 a9 be cc 7a d5 3e 85 71 46 3e
       0.6449234 -0.33185065 0.4169525 0.19379242
0000c0 41 30 b0 be 85 17 23 3f 98 39 94 3d 65 97 31 bf
       -0.34411815 0.6370776 0.07237548 -0.69371635
0000d0 a2 3b 82 be 9b b0 e6 3d 7e b2 07 3f 5b 3c a5 bd
       -0.2543612 0.112641536 0.5300673 -0.080681525
0000e0 cd 1e 07 be 8f 14 0a 3f 28 28 67 3d 56 f3 50 bd
       -0.13195343 0.5393762 0.05643478 -0.051013313
0000f0 bb 71 4c 3e 90 36 39 bf c9 63 5a 3d 55 28 10 bf
       0.1996526 -0.7234888 0.05331782 -0.5631154
000100 0a 4f 65 bf 90 5a 49 be 55 5f 4b bf 0c 64 91 3e
       -0.8957373 -0.19663453 -0.7944234 0.28396642
000110 2f fa 05 3f 29 64 ea 3e 1b d3 03 bf 55 96 ba be
       0.52334875 0.4577954 -0.51493996 -0.3644282
000120 31 a6 42 bf 0a 27 24 bf 0d 64 65 3e f2 4a e5 be
       -0.7603484 -0.6412207 0.22401448 -0.4478374
000130 54 2c e7 3e 32 7f 07 be 9e 06 14 be 6d c7 13 bf
       0.45151007 -0.13232115 -0.1445565 -0.57726175
000140 78 10 66 bd 1d ea a3 be ea ee d3 3e 57 2b b0 3e
       -0.05616805 -0.32014552 0.41393214 0.34408066
000150 2a 1b 6b bd 8b 91 ba be e0 76 56 3e 79 16 92 be
       -0.057398953 -0.36439165 0.20943785 -0.2853277
000160 fe 3c fb be 4f 40 bd 3e af ba 1d bd 24 38 bc 3d
       -0.4906997 0.36963126 -0.038508113 0.091903955
000170 ee 59 0b be 16 8e 5a 3e f1 0b 5e be 85 02 ab be
       -0.13608524 0.21343264 -0.21684243 -0.3340036
000180 e8 fe 07 bd 42 ba a1 be d9 95 3b bf 83 cc b5 be
       -0.033202082 -0.31587416 -0.73275524 -0.35507593
000190 9b 2d 2b 3f 9e 6e 46 3e 1e 1a 4b 3e fa d3 29 3b
       0.66866463 0.19378135 0.19834182 0.0025913701
0001a0 50 a4 a0 3c 84 84 54 bd 8e 8a 62 3e a0 87 cf be
       0.0196096 -0.05188419 0.22123167 -0.4053316
0001b0 da 1e 62 bd 79 fc e0 bd ac 62 76 3e 1a 69 5d be
       -0.055205204 -0.10985655 0.24061078 -0.21622124
0001c0 fe 8b 43 3e 52 86 7f be 8f 82 96 be 2c f6 21 be
       0.19096372 -0.24953583 -0.29396483 -0.15816563
0001d0 d2 16 79 be a4 59 95 3d 2a 7c 79 be 65 a5 ad 3e
       -0.24325112 0.07292488 -0.24363771 0.3391525
0001e0 5e 4f 32 3f a4 1c 82 bf 2a 05 15 3e 97 95 21 be
       0.69652355 -1.016499 0.14552751 -0.1577972
0001f0 d9 66 27 3e 6d 38 22 3e 3e b1 1c 3e 03 9c 88 be
       0.16347827 0.15841837 0.15301988 -0.26681527
000200 5f 1d 9a be 0e 0c 4a 3e b0 11 85 be 14 3f 9a bd
       -0.30100533 0.19731161 -0.25990057 -0.075315624
000210 58 d6 b0 bd d3 ab c1 be 3d 14 11 be 88 64 3b 3e
       -0.08634633 -0.37826404 -0.14167877 0.18300068
000220 fa 65 d4 be 37 c0 ec be be 82 c9 3e 46 1d 95 3e
       -0.41484052 -0.46240398 0.3935756 0.29123896
000230 a0 ac c2 be 4f 17 31 bc 3e 85 83 be 69 ad c7 3e
       -0.38022327 -0.01080878 -0.25687593 0.3899949
000240 ca dd 57 be 62 b1 c5 3e c5 c4 52 be ec fc e5 be
       -0.210807 0.38611895 -0.20582874 -0.44919527
000250 65 ab 88 be af 43 24 3f 01 0a 88 be 13 be ac be
       -0.26693264 0.64165777 -0.26570132 -0.33738765
000260 dc 9b ae 3e 0c a9 b3 3e 50 00 a1 be 33 0b c1 3e
       0.34103286 0.3508991 -0.3144555 0.37703857
000270 6d d1 ba be 6a a0 a3 be 9c a3 8e be 20 41 23 be
       -0.36487904 -0.31958324 -0.278592 -0.15942812
000280 80 81 68 bd d0 33 45 3e b0 a4 40 be 14 9d 7b be
       -0.056764126 0.19258046 -0.18812823 -0.2457164
000290 63 c9 92 be 70 15 82 be 44 43 aa be 1e e3 e0 3d
       -0.2866927 -0.2540698 -0.33254445 0.10980819
0002a0 4e 16 07 bf 9e 3e c5 be a2 bc 00 bf 7b 43 18 3e
       -0.5276841 -0.38524336 -0.5028783 0.14869492
0002b0 41 a3 14 3f 12 75 42 3d 5a 33 e4 be 70 e8 01 3f
       0.58061606 0.04747493 -0.44570428 0.50745296
0002c0 55 5a 03 3f 68 78 12 bf bf 11 15 bf bb 8d 34 3d
       0.5130971 -0.57214975 -0.58230203 0.044080477
0002d0 ac 32 a2 3e 2f ad b9 3c 64 92 a8 3d 6e 7e 00 be
       0.31679285 0.022665588 0.08231047 -0.12548229
0002e0 79 e0 71 3e 56 de 8d be 2b a6 7a 3e 62 bb 4b bf
       0.23620786 -0.2770869 0.2447745 -0.795828
0002f0 5d dd 89 3e 33 13 de be cf 40 82 be f7 22 ea 3e
       0.269267 -0.43374023 -0.2544007 0.457298
000300 1a 2d c6 3e f7 57 3a 3d a7 6e 3d bf e0 18 89 3e
       0.38706285 0.045494046 -0.7399697 0.2677679
000310 23 7f db be 53 33 95 be c9 4f af 3d 07 d4 85 3e
       -0.42870435 -0.2914072 0.0856014 0.26138327
000320 68 8a 3e be 93 6f e2 3e d8 d4 d4 be b7 b3 d2 be
       -0.18607485 0.4422575 -0.41568637 -0.41152737
000330 90 27 34 3d 88 74 1a 3e fd b0 e7 3e d9 ac 94 bc
       0.043983042 0.15083516 0.4525222 -0.018148826
000340 55 a2 3d bd 14 ea 83 3d 3f 7c b8 3e d7 47 a3 be
       -0.04629739 0.06441131 0.36032292 -0.31890747
000350 b2 9c 3f 3e 0c ff bc be c3 12 c0 be d7 2d 64 be
       0.18712118 -0.36913335 -0.37514314 -0.22283112
000360 49 44 a7 be d0 db 80 3d 25 54 84 3e fc 47 a6 be
       -0.32669285 0.06291926 0.25845447 -0.32476795
000370 10 03 76 be 67 92 2f be 58 ec 5c bd 21 80 39 be
       -0.24024606 -0.17145692 -0.053936332 -0.18115284
000380 de cb dc 3e 6e e9 47 3e d8 90 32 3f 16 c4 4e bf
       0.43124288 0.1952264 0.69752264 -0.80767953
000390 1a 1f 55 3d 8c 12 86 bd db b4 80 bd 22 f1 10 3f
       0.052031614 -0.06546506 -0.062844954 0.5661794
0003a0 c5 ee 0d 3f 7a bb 08 bf 2f e6 86 3e 1a 7b 0e 3e
       0.5544246 -0.53411067 0.2634749 0.13914147
0003b0 39 9f 6d bf e9 aa 83 3c 18 ea 6f 3f 51 81 15 3f
       -0.9282108 0.016072707 0.93716574 0.58400446
0003c0 30 b8 4e bf 94 57 f5 bd 87 7b d2 3d 2e f1 c6 bc
       -0.807498 -0.11979595 0.10277467 -0.024284925
0003d0 bb 25 2c be 40 4a 7d bd de 5c 13 3e 10 1f 1f bd
       -0.16811268 -0.06183839 0.14390895 -0.038847983
0003e0 84 13 87 3d 58 97 bb be ed 2c 93 be 00 80 01 3c
       0.06595519 -0.36638904 -0.28745213 0.007904053
0003f0 23 47 0b bd 73 6f 58 3e d3 88 ac 3e 63 cf 28 bf
       -0.034003388 0.21136265 0.3369814 -0.65941447

bias f4 [64]
000000 ec 7b a9 be 73 cc 7d be 64 ba 02 3e 07 6b 81 be
       -0.33102357 -0.24785022 0.12766415 -0.25276968
000010 a9 1f 20 3e a3 78 40 be 6a 16 87 3e 45 9b 85 3e
       0.15637077 -0.1879602 0.26384288 0.26095024
000020 c2 b1 9e bd 50 22 38 be 5e 30 7c 3d 91 14 b2 be
       -0.07748748 -0.17981839 0.061569564 -0.34781316
000030 d1 20 67 bd 95 2a 89 3e bc fd b4 be ac 99 88 3e
       -0.05642778 0.267903 -0.35349834 0.26679742
000040 90 1a 42 be dc 0a aa be 18 b9 18 be 19 46 a0 be
       -0.18955445 -0.3321141 -0.14914358 -0.3130348
000050 01 2e 89 bd 4a f7 92 3e 50 17 ca 3c b9 63 84 be
       -0.06698228 0.28704292 0.02466932 -0.25857332
000060 c1 f5 3d be 39 23 91 be 42 47 f3 3d 0a 45 a7 be
       -0.18550779 -0.28347185 0.11878826 -0.3266986
000070 02 74 42 bd 5e 48 89 3e c3 25 b8 3e 37 de 9f 3e
       -0.047473915 0.26813024 0.3596631 0.31224224
000080 1c 11 98 be e5 b2 56 3e 97 2f 4d bc 89 f0 1e be
       -0.29700553 0.2096668 -0.012523553 -0.15521444
000090 8f f2 80 be 50 c6 9b be f2 72 9f 3e df 64 47 bc
       -0.25185058 -0.30424738 0.31142384 -0.012170046
0000a0 ee c2 22 bd e5 85 b8 be 00 bd 01 3e 4a bb 50 be
       -0.03973668 -0.36039653 0.12669754 -0.20383945
0000b0 b4 01 ab be 2c 5c ca 3c 0d 5d 53 3c a7 c0 92 be
       -0.33399737 0.024702154 0.012900603 -0.28662607
0000c0 27 c6 c0 be a7 43 a8 be a9 02 be be c1 e3 97 3b
       -0.37651178 -0.32864115 -0.37111405 0.0046353047
0000d0 c4 02 87 be bf f7 03 be b8 14 58 3e a9 06 92 be
       -0.26369298 -0.12887476 0.21101654 -0.28520706
0000e0 d4 73 5a 3e fe d5 08 3e b3 f5 eb bd 43 a8 9c 3c
       0.21333247 0.13362882 -0.11521473 0.019123202
0000f0 8b f4 32 bc 3e 05 a8 3e 06 01 8c 3b f7 68 99 be
       -0.010922561 0.328165 0.004272583 -0.29962894

weight f4 [64, 64]
000000 c8 44 48 3b 22 0d 77 3c a4 92 cd bd 7d 85 1b 3e
       0.0030558575 0.015078815 -0.10037735 0.1518764
000010 54 69 8b bd 6a 63 5d 3d 12 78 17 3d 39 1d ef 3c
       -0.06807199 0.054049887 0.036979742 0.02918874
000020 b0 34 2b 3d 85 06 83 bd 89 a4 a5 be b8 93 6c be
       0.041798294 -0.06397728 -0.32352093 -0.23103225
000030 4a 56 2f 3e 54 c9 39 3d 79 82 e8 3c ed 9f 23 bc
       0.1712276 0.045358017 0.028382527 -0.00998686
000040 48 d2 6d bd d8 f9 ee 3d a0 4c f5 3c 53 f6 0a 3e
       -0.058061868 0.11668748 0.029943764 0.13570528
000050 c1 8c 51 be 7f 78 c7 3d 30 21 cb bc c9 67 04 3d
       -0.2046385 0.0973978 -0.024796098 0.03232554
000060 7e 91 10 3d 72 0a 10 3e d5 73 0e 3d 91 97 1b be
       0.035295002 0.14066485 0.034778435 -0.15194537
000070 fc c9 d6 bd 09 17 27 3d c8 a1 61 bd a2 08 cc bd
       -0.10487744 0.040793452 -0.055085927 -0.09962584
000080 57 6c 64 3d 04 51 7e bd 31 3c fc bd 32 8a da 3d
       0.055767383 -0.06208898 -0.12316168 0.1067089
000090 42 ee 4a 3e 39 12 c6 be 7b 73 9b bd 3b 92 f0 bd
       0.1981745 -0.38685778 -0.075903855 -0.11746641
0000a0 57 98 ed 3c 17 59 14 be 7a c1 b8 3d 9c d0 8a 3d
       0.029003305 -0.1448711 0.09021278 0.0677807
0000b0 b5 95 28 3e 01 c8 97 bd 3c 1c 35 3e 08 06 f3 bc
       0.16463359 -0.074111946 0.17686552 -0.029665962
0000c0 f6 c1 93 3d b0 39 76 3d 41 90 ce bd f7 d0 0d 3d
       0.072147295 0.06011361 -0.10086108 0.034623113
0000d0 f4 44 2f 3e 3c 01 81 3c 06 a9 8e be 68 f8 37 3c
       0.17116147 0.015747659 -0.2786333 0.011228658
0000e0 4c 02 53 3d b5 5b e5 bd 71 24 bf 3c 06 9a 02 3c
       0.051515862 -0.11199132 0.023332806 0.007971292
0000f0 66 ce 89 be b8 e3 d8 bd 2a 4d 4e bd d9 c8 35 3e
       -0.26915282 -0.10590309 -0.050366558 0.17752399
000100 4f 2a bb 3d 19 4d 6c bd 72 c0 0b be 24 7c a1 bd
       0.09138929 -0.057690714 -0.13647631 -0.07885006
000110 09 c9 70 3d 35 bb 44 3e 53 56 03 be de 47 6d bd
       0.058785472 0.19212039 -0.12825899 -0.057929866
000120 07 ee 47 be ad 38 f2 bc 88 09 ff bc 05 f7 55 be
       -0.19524394 -0.02956804 -0.031132475 -0.20895012
000130 82 3d eb 3c 00 83 6c ba 06 54 02 be 8b 1b 81 bc
       0.028715853 -0.0009022206 -0.12727365 -0.015760204
000140 70 0e 28 3c 0c 39 27 3d 9c 99 51 bd 28 ad 3f be
       0.010257348 0.04082589 -0.051171884 -0.18718398
000150 70 5a f4 3d 06 95 94 3d 9e f8 9a bd 90 33 31 3c
       0.11931312 0.072549865 -0.07566951 0.010815516
000160 17 e0 70 3d b5 0f 07 bd bc 79 a5 bd d2 eb 1d be
       0.05880746 -0.032973964 -0.080798596 -0.1542199
000170 c6 84 9b 3d 80 00 f8 3d 72 dc bb bd f8 68 fb 3d
       0.07593684 0.1210947 -0.09172906 0.122758806
000180 2c c6 93 3d d7 8a 5c 3c e6 54 22 3e 18 9c ff 3c
       0.07215533 0.013460836 0.15852699 0.031202361
000190 b6 2d 53 be 9a bd f8 3d dd 89 be bd 50 e3 a0 be
       -0.20622906 0.12145539 -0.09303639 -0.31423426
0001a0 02 7a 86 bd b0 c5 3f bd 7e 8d de bd a4 58 e1 3b
       -0.0656624 -0.04681939 -0.10866831 0.006877022
0001b0 0b 10 9a be 40 65 39 be 6b 52 5c be ea aa ce bd
       -0.30090365 -0.1810503 -0.21515815 -0.10091193
0001c0 50 2d de bc fc 1c 62 3d 0d 9f 1f 3e 01 d2 e5 3b
       -0.027121216 0.055203423 0.15588017 0.00701356
0001d0 4b b5 30 be 6d 39 f1 bd f8 ca 6c 3d db 8c 3a be
       -0.17256658 -0.11778531 0.057810754 -0.18217795
0001e0 db 1b 99 3d 0e 1f 81 3d 4a c5 d1 be 86 c9 41 bc
       0.07476016 0.06304751 -0.40970832 -0.011827832
0001f0 a1 ef 75 3d ed a7 b6 bd 2a 2f 84 bd ae 0c 0b 3e
       0.06004298 -0.08918748 -0.06454308 0.13579056
000200 f3 8d 6c bb 21 8c b0 3d 4a be bf 3c a7 6e 7a be
       -0.003609535 0.086204775 0.023406167 -0.24456273
000210 82 6c a6 3c 8c 1e 07 3e 2c a6 d4 3d 91 32 f9 bd
       0.020315412 0.13195246 0.10383257 -0.12167848
000220 e6 8c 28 3d 06 41 80 3e cd eb 91 be 1a 89 b7 bd
       0.041149996 0.2504961 -0.28500214 -0.08961697
000230 e9 b0 29 3d 10 d6 42 bd 61 79 9a bc 00 cc 87 bb
       0.04142848 -0.047567427 -0.018856706 -0.0041441917
000240 98 b3 d7 bd 16 e2 24 be c0 94 8a bb a3 c6 f6 bc
       -0.10532302 -0.1610187 -0.004229158 -0.030124014
000250 82 d1 0b be 05 b8 0f 3c 6c 77 5f bd 7c b6 b4 bd
       -0.1365414 0.008771901 -0.05455725 -0.08823869
000260 0f 82 4d be ea 13 03 be de 9d 54 bd 2f 47 88 3d
       -0.20069145 -0.12800565 -0.051908366 0.06654202
000270 20 13 a3 3d 69 2a b9 3d 90 a6 14 bd 78 43 1b bd
       0.07962632 0.09041292 -0.03629166 -0.03790614
000280 52 c4 1a 3e c8 20 44 3d 51 30 51 3d 98 f3 c9 3d
       0.15113953 0.047882825 0.05107147 0.09860915
000290 e4 a6 ad 3d 0d 53 7c 3d 81 f8 e4 3d 39 16 17 be
       0.084790975 0.06160264 0.11180211 -0.14754571
0002a0 cb 7b 1a be 61 11 98 3c 30 77 3f 3b 0e e3 22 3e
       -0.15086286 0.018562974 0.0029215328 0.15906927
0002b0 9f 3f 76 3d 9d 3a 86 3d 9a ce d9 3d 84 3d 69 3d
       0.060119268 0.06554148 0.10635109 0.05694343
0002c0 9b b3 d4 bd dc 17 79 bd f0 f3 bf 3c e7 10 b9 3c
       -0.103858195 -0.06081377 0.023431748 0.022591067
0002d0 0a a0 10 be 4d b3 cf bd 61 19 ba bd 5a ef 0d be
       -0.1412355 -0.10141621 -0.09086872 -0.13860837
0002e0 60 86 2a bd 97 98 3d 3a f3 93 5f 3d 2b 8d 50 bd
       -0.041632056 0.00072325155 0.054584455 -0.05091588
0002f0 28 a1 02 3d 53 55 79 bc b2 53 bf bc a0 6c c4 3d
       0.03189197 -0.015218097 -0.023355339 0.09591031
000300 fe af aa 3c 7c 62 c5 bc ce be b1 3a ed 7b 80 bd
       0.020835873 -0.024094813 0.0013560893 -0.06273637
000310 8f 03 ad 3d 47 b1 d9 bd 04 97 41 be 13 2d 5c bd
       0.084479444 -0.10629516 -0.18905264 -0.053753924
000320 16 8a 07 3e 10 d1 87 3e a0 5b 0e 3e c3 37 c8 3d
       0.1323627 0.2652669 0.1390214 0.09776261
000330 c1 cc 72 3d ec f9 42 bd 4c 43 1c be 90 a8 ad bc
       0.0592773 -0.047601625 -0.15260047 -0.02119854
000340 10 fd 5f bc 19 17 09 be f0 5d 1e 3c b4 b5 14 3d
       -0.013671175 -0.13387717 0.009665951 0.036306098
000350 b6 b1 a2 3d 87 35 4a be 78 f9 b9 bd 58 2e d5 3d
       0.07944052 -0.19746982 -0.090807855 0.1040923
000360 ed 4e d6 3d 3f 6b 19 be 7d 0c 7d 3e d3 d9 09 3e
       0.10464273 -0.14982317 0.24711795 0.13462
000370 26 f4 f0 3d 08 69 5f bd 2c 7d 65 3d 62 00 e5 3d
       0.117653176 -0.054543525 0.056027576 0.11181714
000380 6f a2 2f bd 8d bd 05 3e f2 5f d1 bb 30 ee e0 bd
       -0.042879518 0.13060589 -0.0063896114 -0.10982931
000390 56 83 81 bd f5 73 ce bc 30 31 25 bc 52 c4 c5 3d
       -0.063238785 -0.025201777 -0.010082528 0.09656586
0003a0 a4 d2 80 3e 2d cc 10 3e 44 ce 0a 3e 90 e9 32 be
       0.25160706 0.14140387 0.13555247 -0.1747191
0003b0 d2 b1 c3 3d c1 9a d2 3d 75 eb e4 3c da 3f 8a bd
       0.09555401 0.10283423 0.027944306 -0.0675046
0003c0 12 2b e6 3d 88 99 48 bd d7 df 1a be 24 af 19 be
       0.11238684 -0.048974544 -0.1512445 -0.15008217
0003d0 1b 21 2a be e3 3e 00 3e fa f0 0f 3d 7c 27 b6 3d
       -0.16614191 0.1252399 0.035141923 0.0889425
0003e0 2f 02 4e 3c 7d 18 56 3b bd a8 bf bd be 9a ae bc
       0.012573763 0.0032668405 -0.09358356 -0.021314021
0003f0 fc ca e1 3d 0e cc 28 3e f9 56 96 3c d0 1f 35 be
       0.11025044 0.1648409 0.018352019 -0.17687917

bias f4 [64]
000000 eb ed 0d 3e b2 c0 78 3d 09 21 2b bd c3 91 83 bd
       0.1386029 0.060730644 -0.04177955 -0.06424286
000010 76 29 be 3d 4c 78 cf 3d fc 05 a0 3d e2 45 89 bd
       0.09285252 0.10130367 0.078136414 -0.06702782
000020 9c 3a 60 3d 4b c7 65 3d 6e 20 82 3d 8b 0b c6 bd
       0.054743394 0.056098264 0.06353842 -0.096701704
000030 dc d5 8f bd 9a 13 22 be 32 0a 0f 3e b2 c8 a1 bc
       -0.07023212 -0.1582779 0.13968733 -0.01974902
000040 1c 30 b4 bd fe 39 d2 3c f6 aa 8e bd b1 ed d4 3d
       -0.08798239 0.025662418 -0.06966202 0.103968985
000050 50 0d 66 ba f0 03 a9 3d 69 b7 8f 3d 9d ae f0 bd
       -0.00087757874 0.08252704 0.070174046 -0.11752055
000060 03 0c ca bd f4 65 6a 3d b5 dd e0 bc 21 cc 80 3d
       -0.09865572 0.057226136 -0.027449468 0.062889345
000070 58 1e 46 ba 43 1d d6 3d 92 29 bf 3d b1 f4 fd bc
       -0.0007557622 0.104548 0.09334101 -0.031000467
000080 bd 13 0e 3d be bb 4b 3d 28 b5 fa bd 95 2b 06 be
       0.034686793 0.04973959 -0.12241584 -0.13102563
000090 cb 68 95 3d a0 af 6e 3d 55 d6 5f 3c 76 84 12 be
       0.07295378 0.058272958 0.013661941 -0.14308342
0000a0 d4 a7 c2 3b 4d 3f b5 bd 4b 50 ce bd 4d 8b d1 3d
       0.005940417 -0.08849964 -0.100739084 0.10231648
0000b0 6e 18 2b 3d 74 bb c2 bd 05 a9 a1 3d cb ac fc bd
       0.041771345 -0.0950841 0.07893566 -0.12337645
0000c0 04 d9 d0 bd ed 40 a2 3d 01 88 8d bc 3b 91 fd 3d
       -0.101976424 0.0792254 -0.017276766 0.12381216
0000d0 05 d9 1a 3d 00 8d 41 bd 8c 4e 92 3d a0 22 a8 ba
       0.037804622 -0.04725361 0.07143888 -0.0012827702
0000e0 2d 94 37 bd b0 e6 f0 bd b4 ba 3e bd b7 5f f5 3c
       -0.044819046 -0.1176275 -0.046564773 0.029952867
0000f0 e5 10 bd bd 52 ac be bd d1 5a 84 3d 23 60 02 bd
       -0.09231738 -0.09310211 0.06462634 -0.031829964

weight f4 [64, 64]
000000 b7 dc e0 bd e0 fe 13 3d 50 72 73 ba a6 59 31 be
       -0.10979598 0.03613174 -0.0009286748 -0.17319354
000010 c1 87 74 bd ff ff c0 3c 30 b8 05 bb fb 18 52 3d
       -0.059699778 0.023559568 -0.0020403974 0.051293354
000020 ef 31 69 bc 15 52 37 3e e5 d0 1d be 47 d0 99 bd
       -0.0142330965 0.17902406 -0.15411718 -0.07510429
000030 b1 1b ee bd f6 fa a1 bd 85 f4 c6 3d ef 39 7d be
       -0.116263755 -0.07909195 0.09714607 -0.24729131
000040 e4 4a a3 bd a7 29 41 3d 44 a2 16 3e 4c 11 2a be
       -0.07973269 0.047158863 0.14710337 -0.1660816
000050 57 a1 2e bd f9 71 ce bc 33 93 04 3d 89 14 0a b9
       -0.042634334 -0.02520083 0.032366943 -0.00013168356
000060 ea bb 5d 3d 40 50 ff 3d c3 92 52 3e c9 ab c7 bd
       0.054134287 0.12466478 0.20563798 -0.09749562
000070 ff dc 1a 3e d0 5f 3f bc 62 95 e8 bd ce f1 a4 3c
       0.15123366 -0.011680558 -0.113566175 0.020134833
000080 eb 4b e7 3d 89 87 fd 3c e4 41 1f 3c 89 d5 31 3d
       0.11293777 0.030948417 0.009720299 0.043416534
000090 13 0b e8 3d b5 a7 58 3c 6e 7e bc 3d e1 12 26 3d
       0.11330237 0.013223578 0.09203802 0.040545348
0000a0 1f 6e 27 be 1d f1 33 be e0 dd 25 3e 64 95 e8 3d
       -0.16350602 -0.17572446 0.1619792 0.11356619
0000b0 be 30 98 3d b1 0c e5 bd 74 72 4f 3d 75 41 23 be
       0.07431172 -0.11184061 0.05064626 -0.15942939
0000c0 dd fa d3 bd 35 50 6d bd 1e 4e cf 3d 38 22 02 3d
       -0.10350583 -0.05793782 0.101223215 0.031770915
0000d0 b8 45 b1 3d ab f1 3c bd 41 0c 87 3d 35 24 1b 3d
       0.08655876 -0.04612891 0.06594134 0.037876327
0000e0 8f eb 1b 3d 0a ec 11 3e c2 a6 2c 3e 5e 0e d0 3d
       0.038066443 0.14250198 0.16860488 0.1015899
0000f0 6b 1d 37 bd 4a 5b bb bd f0 84 81 be 36 2d 25 bd
       -0.04470579 -0.091482714 -0.25296736 -0.04032632
000100 9a 3e 4c bc 6a 33 1b 3c 67 c5 ef bd 82 d2 ed bd
       -0.012466097 0.009472707 -0.117075734 -0.11612417
000110 f3 cb 95 3b af 6f b1 bd 06 6a f1 3c bc cb 8d bd
       0.004571432 -0.0866388 0.029469501 -0.06923625
000120 4b 0e 2c 3e 8d 4c a7 bd 78 f5 d8 3d 8d 56 bd bd
       0.16802327 -0.08168898 0.105936944 -0.09245024
000130 ee 9d f7 bd 2f 1a c9 3d 13 b6 c3 be d3 a6 1c be
       -0.120906696 0.09819447 -0.3822485 -0.15298013
000140 48 aa e4 3c 07 e6 ca 3d ca be 0f be dc 8e f5 bd
       0.027913228 0.099071555 -0.14037624 -0.11990139
000150 d6 d8 a5 bd 8e e7 70 bc 4c ea b7 3d 0e 1a f2 bd
       -0.08097999 -0.014703644 0.089802355 -0.11821376
000160 6b 4d 56 3d 73 58 a8 bc 09 a0 5a bd 24 24 ba bd
       0.052319925 -0.020549988 -0.053375278 -0.090889245
000170 f2 0a 94 3c bc 64 da bc 91 6d f6 3c b5 d4 b6 3c
       0.018071625 -0.026659362 0.030081542 0.022318223
000180 40 d2 95 bc 24 09 4d 3d 48 47 e6 3d 43 5b 30 bb
       -0.018288732 0.050057545 0.112440646 -0.0026909865
000190 8c d0 37 3c da 34 e7 3d 0d e5 43 bd 73 a5 05 3d
       0.011219155 0.112893775 -0.04782586 0.032628488
0001a0 b8 51 af bd 20 72 e4 3d 51 6d d1 bd 26 a7 8c 3d
       -0.085605085 0.1115458 -0.102259286 0.068678185
0001b0 9b bc f1 bd 04 50 84 3d a6 60 e3 3c b7 e2 04 bd
       -0.11803552 0.06460574 0.027756047 -0.032442775
0001c0 da b5 48 bd 2d 31 5c bc 76 86 a4 bb 69 7b b3 bc
       -0.049001552 -0.013439459 -0.005020912 -0.021909432
0001d0 21 53 82 3d 0d ff e7 3d 76 67 c9 3d fa ae 9d 3b
       0.06363512 0.11327944 0.09834187 0.0048121186
0001e0 fb d9 1e 3e 51 3a b7 bd 0d de 00 3e 52 0a 60 bc
       0.1551284 -0.0894667 0.12584706 -0.013674336
0001f0 88 e6 09 be 8f 81 86 bd 9b 11 40 bd 79 40 11 bd
       -0.13466847 -0.0656768 -0.04689179 -0.035461877
000200 10 3d c3 3d 94 91 3f 3d dc b7 15 3e 71 fe 4c bd
       0.09533131 0.046769693 0.14620918 -0.05004734
000210 e3 39 0d bd 70 34 c2 3d e2 fc d8 3d 0e 3c e4 3c
       -0.034479033 0.09482658 0.105951086 0.027860668
000220 bf e5 39 bc 68 7a 30 3e 61 cd 32 be 5e 1f 60 be
       -0.01134628 0.17234194 -0.17461158 -0.21886966
000230 c5 be 81 bd c4 c0 92 be 58 98 fb bd ec c0 90 3d
       -0.063352145 -0.28662694 -0.12284917 0.07068047
000240 1a 91 c6 bd 3c d4 e3 bd 93 a0 7b bd d2 59 56 be
       -0.09695645 -0.11124465 -0.061432432 -0.20932701
000250 0b 08 46 be 54 3c c8 3d 9a 4a 58 3e 4d de b7 3d
       -0.19339006 0.09777132 0.21122208 0.089779474
000260 57 3b 02 be e8 cc 43 bd 6f 7c a3 bd 48 5a de bb
       -0.12717949 -0.047802836 -0.07982718 -0.0067856647
000270 ec 44 c4 3d 55 d1 7d 3d 1c ca 38 be 77 2d 1f 3e
       0.09583458 0.061967213 -0.18045849 0.15544687
000280 f5 e8 9b be 9e 7b 8b 3d 8d 57 9e bd ae b0 1c bd
       -0.3045117 0.068106875 -0.07731543 -0.038254432
000290 80 18 93 3d 25 ae 94 3d b8 c0 14 be c9 ab 57 3e
       0.071824074 0.07259778 -0.14526641 0.21061625
0002a0 e3 9a 1d 3d e0 62 e6 3b 22 e1 cb bc ce 0f 95 3e
       0.03847779 0.00703083 -0.024887625 0.2911362
0002b0 06 f1 97 3d 0b 94 b2 3d c1 0a e3 bd 1d d0 1c 3a
       0.074190184 0.08719643 -0.110860355 0.0005981939
0002c0 a5 3a 3b bd 02 be 66 bd 14 08 61 3d 43 76 12 3e
       -0.045710225 -0.05633355 0.054939345 0.14302926
0002d0 aa 3b fe 3d f2 26 2e 3d e9 be 46 3d 13 f2 2c 3e
       0.12413724 0.04251761 0.04852191 0.16889219
0002e0 c9 73 cc bd 59 ac 0d 3e a5 03 6e bd 38 af c8 3b
       -0.09983022 0.13835277 -0.058108944 0.0061244033
0002f0 c4 0a 93 be da 2a 01 bd e6 54 bb bd a2 67 53 bd
       -0.2871915 -0.031535007 -0.091470525 -0.051612504
000300 ca 0c 2d be 61 8d ce bc d0 fa b5 3c 1a 2f da 3c
       -0.1689941 -0.0252139 0.022214323 0.026633788
000310 47 f4 12 3e 25 32 64 3e 09 6f 5d bd 0e 47 7e 3d
       0.14350997 0.22284754 -0.05406097 0.06207948
000320 21 e4 c5 3d f7 c3 e7 3c 7a 89 94 be 51 a9 18 3b
       0.09662653 0.028291686 -0.29011136 0.002329428
000330 24 12 9d 3d f5 d1 bf 3d a3 39 40 be f5 11 a1 3d
       0.07669476 0.09366218 -0.18771987 0.07864753
000340 c0 8d 27 bb 6d 72 0d 3e 56 45 2e be e3 26 ac 3d
       -0.0025566667 0.13813181 -0.17018637 0.084058546
000350 7b 62 59 3e c9 cb 0c bd cc 44 35 bd 77 05 84 bd
       0.21228974 -0.034374032 -0.044255063 -0.06446355
000360 60 c6 5f be b3 04 aa bd a4 2b 8b bd cb b2 54 3c
       -0.21853018 -0.083016776 -0.06795433 0.012982081
000370 15 b4 56 3d 7c 33 b4 bc 8a 92 f6 3d 3c 3f 31 be
       0.052417833 -0.021997206 0.12039669 -0.17309278
000380 07 f5 08 be 2e d1 52 bd b6 27 d5 3d 76 d4 bb 3c
       -0.1337472 -0.05146902 0.10407965 0.022928458
000390 59 b0 a1 bd 89 fb 21 be b3 33 0c 3c 81 2e f7 bd
       -0.07894964 -0.1581861 0.008557248 -0.12069417
0003a0 5c 21 ba bc 36 43 28 3e c4 99 ce bb dc 93 4b be
       -0.022720985 0.16431889 -0.0063049514 -0.19880623
0003b0 36 da 06 3d 07 30 00 3c d5 d1 31 bd fd 83 b1 3d
       0.032922946 0.007823951 -0.043413002 0.08667753
0003c0 be e4 e9 3d 06 6a 51 3d 1b 02 05 bd 37 5d 89 b9
       0.11420582 0.051126502 -0.03247271 -0.00026200127
0003d0 6d 55 a2 bd 76 33 85 bc a6 b8 0f be d2 ff 48 bc
       -0.0792645 -0.01625989 -0.14035282 -0.012268024
0003e0 b7 6e 78 bc da 24 4f bd fd da fa 3d 7a 27 73 3d
       -0.015163115 -0.050572254 0.122488 0.05936382
0003f0 cf cf a1 3d d7 8a 3d bd 65 02 22 3e 84 50 9f bd
       0.079009645 -0.046274986 0.15821226 -0.07779029

bias f4 [64]
000000 cf fa 12 3d ff 0d 6b bd 25 e6 15 bc 1c 2d 2b be
       0.03588372 -0.057386395 -0.009149109 -0.16716427
000010 58 02 34 be f4 1a 99 3d a0 11 68 3d 00 4c 08 be
       -0.17579019 0.07475844 0.056657434 -0.13310242
000020 53 21 a6 bd 93 3c 41 bd e6 59 88 3d c2 03 6f bd
       -0.08111825 -0.04717691 0.06657772 -0.058353193
000030 1f b3 86 3d 3b 1c 16 3d dc 83 88 3c 85 67 2c be
       0.065771334 0.036648016 0.016664438 -0.16836365
000040 6a 1b eb bd ab c5 bd bc 31 72 7f 3d 2b 0f 31 3e
       -0.11479838 -0.023165544 0.06236476 0.17290942
000050 8f e4 1e be 09 7e d1 bd 80 b1 80 3d 60 fa 31 3c
       -0.15516876 -0.102291174 0.062838554 0.010862917
000060 67 92 81 3d 87 68 68 bd 7b e9 3d 3e 66 38 bf 3d
       0.06326752 -0.05674031 0.18546097 0.09336929
000070 7f e6 dc bd be 19 7f bd fe 50 bc 3c 0e d7 52 3d
       -0.10786151 -0.06228041 0.022987839 0.051474623
000080 da 5f f6 3d 21 f0 12 be 7e 3e 41 bd 78 a8 19 3b
       0.12030001 -0.14349414 -0.047178738 0.0023446362
000090 12 1d 40 bd bc 75 57 bc 32 d7 10 3e ec 51 74 3d
       -0.046902724 -0.013150629 0.1414459 0.05964844
0000a0 b8 52 2f 3e b7 5c 1f be ae 4d 0e 3c 58 80 78 3b
       0.17121398 -0.15562712 0.0086855125 0.0037918296
0000b0 86 ca d9 3d 5c 13 af 3c e0 bf 3c 3c 5b c4 5f 3e
       0.106343314 0.021371536 0.011520356 0.21852247
0000c0 43 dd f9 bd 71 18 cb 3d ad 31 e1 3d 56 52 57 3d
       -0.122004054 0.09916771 0.10995803 0.052568756
0000d0 0c 8e ba bd 8f 6b 38 3d f4 f2 66 3d b9 da 02 3d
       -0.091091245 0.04502445 0.056384042 0.03194687
0000e0 c3 bd 1d 3d f1 b1 d6 39 65 18 79 3d 4a 36 7c 3d
       0.03851105 0.00040949837 0.06081428 0.06157521
0000f0 58 6d 56 3d df da 99 bd 6f 20 39 3d 55 18 97 bb
       0.052350372 -0.075124495 0.045196947 -0.004611055

weight f4 [64, 64]
000000 d4 13 c1 3c d8 12 22 bc ae aa 2a 3c bf 56 df bd
       0.023569025 -0.009892188 0.01041667 -0.109052174
000010 06 23 cd 3c 9d 61 57 3d 19 90 92 bc b6 14 d9 3d
       0.025041115 0.052583326 -0.017890977 0.105996534
000020 ea 31 a3 bd d2 10 af 3d a6 3a 9c 3d 86 bb be bd
       -0.07968505 0.0854813 0.07628374 -0.09313111
000030 99 8b 9d 3c 3b 20 aa bd 80 f8 5d 3c f0 f7 05 3c
       0.019231604 -0.08306929 0.013548017 0.008176789
000040 0a bd 2b be 01 f1 c4 bd 41 b3 09 3d 28 25 d8 3d
       -0.16771331 -0.0961628 0.033618215 0.10553962
000050 d5 25 fa 3c fe 84 54 3d 8d f7 fe bd f2 f7 05 bd
       0.030535618 0.051884644 -0.1244956 -0.032707162
000060 4f 23 ae bd bf c5 60 3e 42 35 11 3e 13 c5 6b 3d
       -0.08502828 0.21950434 0.14180472 0.05756099
000070 91 cc 01 bd 93 9b 5f bc 0e a5 79 3d 3d f1 29 3e
       -0.03168923 -0.013647932 0.060948424 0.16595931
000080 18 d1 05 3e 1d 66 60 3d 61 48 5a 3d e8 8c b6 3d
       0.13068044 0.054784883 0.053291682 0.089135945
000090 d4 94 0a 3e 4f 1b 1c be 04 6f a6 bd 4c b7 13 3d
       0.13533336 -0.15244792 -0.08126643 0.036063477
0000a0 d5 b5 11 bd cb 67 ce bd dd 52 19 3e 16 38 1b be
       -0.0355738 -0.10078391 0.14973016 -0.15158114
0000b0 c8 cc f5 bd 97 40 df 3d dd a6 63 bd 38 6f b8 bd
       -0.120019495 0.109009914 -0.055579055 -0.09005588
0000c0 9e 29 ee bd 1e 84 d8 bd 85 41 c0 3c 08 96 88 3c
       -0.116290316 -0.10572074 0.023468742 0.016673103
0000d0 9e fe 85 bd 3a 3b 31 3e e3 cd 42 3d e4 f3 96 3c
       -0.06542705 0.1730775 0.04755963 0.018426843
0000e0 86 3a 0a 3e 5a b5 8b 3d ae 1f fd 3b 7a c3 a0 bd
       0.13498887 0.068216994 0.007724724 -0.07849784
0000f0 bf f8 b1 bc be 08 a5 3d c3 84 26 3d 6d 54 1e 3e
       -0.021725057 0.08058308 0.040653955 0.15461893
000100 c3 ed 6a 3d 50 e9 b3 3d 98 aa 10 bd 1e 1b 93 bd
       0.057355653 0.08784735 -0.03531894 -0.071829066
000110 41 9b e1 3d 1b c2 bd bb 12 28 b6 3b e9 da 7b bd
       0.110159405 -0.0057909614 0.005558976 -0.061488066
000120 7d 6a 04 be 04 b0 6d bd a9 23 d5 3d 6a 79 08 3d
       -0.12931247 -0.05802919 0.10407192 0.033318914
000130 b3 4e 2d bd 0a ae 93 bd 6a a6 62 bd 3b 44 6d 3d
       -0.04231138 -0.0721093 -0.055334486 0.057926398
000140 78 b3 62 bc 48 2e 88 bd d8 17 87 bd 6d ab 23 be
       -0.013836734 -0.066494524 -0.06596345 -0.15983362
000150 39 77 b6 bb 4d c9 1f 3d e6 6e 88 bd 96 64 cd 3c
       -0.0055684117 0.039010335 -0.06661777 0.025072377
000160 b7 43 df bd 40 a9 85 bc 77 91 86 3d 50 d6 61 3d
       -0.109015875 -0.016316056 0.06570714 0.055136025
000170 c2 73 34 3d 7c 8d d8 3c 14 82 f0 bc 66 4d da 3d
       0.044055708 0.026434653 -0.029358901 0.10659294
000180 61 ec fa bd 35 62 5c 3d 91 c0 a5 bd 0c 56 2d be
       -0.12252117 0.053804595 -0.0809337 -0.16927356
000190 79 2a 56 3d 39 59 4e bd 4e 71 b0 bd c8 78 b3 3d
       0.0522866 -0.050378058 -0.08615361 0.087632716
0001a0 e6 21 ae bb ab a4 30 3c 2e 7a 94 bd 36 1c 9f 3c
       -0.0053140996 0.010781447 -0.072498664 0.019422632
0001b0 a4 b4 ad 3b 8c 25 ee bc 9f a1 e5 bd 71 6c 2f bd
       0.005301075 -0.029070638 -0.112124674 -0.042828027
0001c0 a3 91 f6 3d f4 53 5d bd 4b 5c 06 3d 75 c6 b2 3c
       0.12039497 -0.054035142 0.03280286 0.021823147
0001d0 8a df 09 3e e2 af 06 bd 61 8a 6b bd 07 14 11 be
       0.1346418 -0.03288258 -0.057505015 -0.14167796
0001e0 52 5d 23 3e 29 f4 c6 3c 05 db 08 be ca 91 86 bc
       0.15953568 0.024286347 -0.133648 -0.01642694
0001f0 2e 66 4f 3d 62 17 d9 3d 33 1a 90 bd d9 c3 d4 bd
       0.050634556 0.10600163 -0.07036247 -0.103889175
000200 a0 58 c6 bc 32 b1 db bd f0 c1 d8 3d 5f 62 4d bc
       -0.024212182 -0.10727157 0.10583866 -0.0125356605
000210 f5 da 81 bd 5f 4b a8 bd 47 f6 02 be 07 7f 4e 3d
       -0.06340591 -0.08217501 -0.1278926 0.05041411
000220 11 73 b5 3a 59 24 f2 bd 73 bc 7e bd 3a ce 7f 3c
       0.0013843497 -0.11823339 -0.062191438 0.015613133
000230 a5 20 99 bd f6 56 f7 bd 39 0f d4 bd f1 09 7d bc
       -0.074769296 -0.12077133 -0.10354466 -0.015444265
000240 3d 55 ae 3d da a0 a7 bb 5a 48 15 3b e8 46 3a 3c
       0.08512352 -0.0051156105 0.002277872 0.011369444
000250 87 e5 2c 3d 00 9d 44 3d cc 96 da bd dc c0 a3 3d
       0.04221108 0.04800129 -0.106732935 0.079957694
000260 5c 09 e9 b8 38 00 e6 bd ff 2e 7d 3d ca 83 00 3e
       -0.00011112049 -0.112305105 0.061812397 0.12550274
000270 ed 8a 02 3e dc 81 e1 3d ca 54 b3 3d 91 e1 d8 3d
       0.12748308 0.11011097 0.087564066 0.105898984
000280 35 5a 23 3d 61 5a a6 bc 4c ad a2 bd df e5 a3 3c
       0.03988095 -0.020306768 -0.0794321 0.020007072
000290 9d 44 86 3d 81 b3 da 3d 72 99 01 3e da 74 12 3e
       0.06556056 0.10678769 0.12656191 0.14302388
0002a0 06 6c d2 bd 01 3e 55 bb 74 84 0a be 0d 70 06 3e
       -0.1027451 -0.0032538178 -0.1352709 0.13128681
0002b0 2d ae 7e bc 8b f9 e3 bd 4c 2c 4a 3d 6c f3 b2 bc
       -0.015544456 -0.11131581 0.04935865 -0.021844588
0002c0 62 fb 80 bd 58 75 81 bd 08 96 af bd 7b 3f ad 3d
       -0.062979475 -0.0632121 -0.08573538 0.084593736
0002d0 a3 df 5d bd 63 c8 d9 bd 5f 9b 8b bd 18 e8 44 3b
       -0.054168355 -0.10633924 -0.06816744 0.0030045565
0002e0 dc 53 21 be c7 18 cb 3d 7b 00 03 be ad 59 bb 3d
       -0.15754646 0.09916835 -0.12793152 0.09147964
0002f0 02 58 d9 3d c8 87 99 3d 95 87 07 bd a5 2c 51 bd
       0.10612489 0.07496601 -0.033088285 -0.051067967
000300 d2 81 07 3d d2 02 fe bd d2 88 4c bd c4 ef c5 bd
       0.03308279 -0.12402882 -0.04993517 -0.09664872
000310 a8 da ba 3c b2 8f 34 bc 0e 45 c6 bd cb 28 48 3d
       0.022809342 -0.011020588 -0.0968114 0.04886703
000320 1e f8 97 3d 12 6a 5d 3d 0c 0e d4 b9 ef ce 06 be
       0.074203715 0.054056235 -0.00040446257 -0.13164876
000330 5e 4f d3 3d 59 58 bd 3d 51 e8 a6 bd c2 3e 77 bd
       0.103178725 0.092453666 -0.081497796 -0.060362585
000340 33 96 bc bd 9b 7c 23 bd b8 6c ed bd 11 14 44 bd
       -0.09208336 -0.039913755 -0.11593002 -0.0478707
000350 7e 54 6a 3d 06 b1 a8 bd 7e 0a 1d 3c 21 ed 72 3c
       0.057209484 -0.082368895 0.009585021 0.014827044
000360 b2 c2 fe bc 03 a0 ed 3d 99 93 b8 bd 01 f7 01 3e
       -0.031098697 0.116027854 -0.09012527 0.12691881
000370 a7 5b a5 3a c4 6a 28 3d 46 32 65 3d 46 7d e2 3d
       0.0012615816 0.041117445 0.055956148 0.1105905
000380 63 8a 15 3d 40 d3 0a bb f0 dd e5 3d c6 43 ed 3c
       0.03650893 -0.0021183044 0.11223972 0.028962981
000390 b9 7b 92 bd 3b f7 bd 3d dc 97 06 3e 50 8d 59 3d
       -0.071525045 0.09275671 0.13143867 0.05311328
0003a0 f0 b7 75 ba a1 90 e2 bd d2 48 9a 3d 14 96 fc bd
       -0.0009373417 -0.11062742 0.075334206 -0.12333313
0003b0 f0 fe 05 3d f8 c8 01 3e 14 bf b8 bc 84 2e 61 3d
       0.03271383 0.1267432 -0.02255205 0.054976
0003c0 86 90 48 3d da 1d 01 be 26 e8 93 bd 19 83 b9 3d
       0.048965953 -0.12609044 -0.07222013 0.09058208
0003d0 40 e2 99 bd fa bb fe bc 6c e9 76 3d 1c 1d c9 bc
       -0.07513857 -0.031095494 0.060281202 -0.024550013
0003e0 63 44 4a 3d b4 4f 36 bd e4 8c 38 bd 9d 64 dd bd
       0.049381625 -0.044509605 -0.04505624 -0.10810206
0003f0 a2 3e 23 3d 98 bf 5b 3d b8 8e 4c 3d b5 d4 0c 3d
       0.039854653 0.053649515 0.049940795 0.03438254

bias f4 [64]
000000 33 8b 52 3e 7f 29 88 bd bf 00 ae 3d 95 bc 24 3e
       0.20560913 -0.0664854 0.08496236 0.16087563
000010 71 eb 2b 3e bf 75 c1 bd 36 94 08 3e 13 86 fa 3d
       0.16789033 -0.094462864 0.13337788 0.12232604
000020 ce 08 8c 3e cf 1f 4c be e2 55 6f bc 13 31 cd bd
       0.27350467 -0.19934009 -0.014607878 -0.10019126
000030 0f 93 18 be c9 11 5c 3d 1d f2 03 bd 7b 0c d5 bd
       -0.14899848 0.0537279 -0.03221332 -0.10402771
000040 8b 72 d2 3d b7 8f 04 be f4 1b 84 bc ea 33 56 3d
       0.102757536 -0.12945448 -0.01612661 0.052295603
000050 8b 66 76 3e af 29 71 bb c8 3c 8d 3d 9b 98 21 bc
       0.24062555 -0.0036798527 0.06896359 -0.009863044
000060 00 9d 82 bd 97 b2 81 bd 7c bd 5f bd f2 18 04 bd
       -0.063776016 -0.063328914 -0.054624066 -0.032250352
000070 97 16 12 be 42 93 09 b9 0d 67 6b be 2f 5e 03 3d
       -0.1426643 -0.00013120196 -0.2298853 0.032072242
000080 2d cd fe bd 38 be 08 3e 4d 2d 03 be f4 34 88 be
       -0.12441478 0.13353813 -0.1281025 -0.266029
000090 6a d9 01 be 81 10 1a bd 37 72 7a 3d 28 f8 12 bd
       -0.12680593 -0.037613396 0.06114408 -0.03588119
0000a0 b9 da 5d bb 69 8f e9 3d 97 58 ba 3c b3 60 a0 be
       -0.0033852293 0.114043064 0.022747321 -0.31323776
0000b0 de 06 64 be fd b6 34 bd b0 e8 80 be b6 c3 26 be
       -0.22268245 -0.044119824 -0.25177526 -0.16285595
0000c0 55 49 64 3c c9 e7 8b bd 55 3b b2 3d 5e 3a 7d bd
       0.013933499 -0.06831319 0.08702723 -0.06182324
0000d0 24 1c 68 3d 1e 51 c2 3d ab c2 77 3e a3 08 19 3c
       0.056667462 0.09488128 0.24195354 0.009340438
0000e0 54 bc c4 bd b2 ef 1e 3d 0e 8e f5 3d 96 38 8c 3e
       -0.09606233 0.03880281 0.119899854 0.27386922
0000f0 96 f2 23 be ef 3e 91 bd fc ba 1f 3e aa 30 86 bc
       -0.16010508 -0.07092082 0.15598673 -0.016380627

weight f4 [2, 64]
000000 2e 15 27 be ed 5d 57 3e d9 bc b4 3d ca 54 d2 bd
       -0.16316673 0.21031924 0.08825082 -0.102700785
000010 4e b2 c3 be 88 2a 2c 3c 1a 4b c1 be 94 ef a2 be
       -0.38221973 0.010508187 -0.3775261 -0.3182341
000020 df 5b d6 be 3b f5 ba 3e c2 e6 df bd 51 5d b5 3d
       -0.41866967 0.3651522 -0.109326854 0.08855689
000030 49 a9 af 3d 71 17 82 be 71 82 9d 3e 34 c4 aa 3e
       0.085772105 -0.2540851 0.3076358 0.33352816
000040 e4 66 e4 bc d0 e6 02 3f 7b 45 56 3e f7 63 bf bd
       -0.027881093 0.5113344 0.20924942 -0.09345239
000050 57 c7 77 be ae f7 1d bd 20 8b ad bd df 9a 64 3e
       -0.24197136 -0.038566284 -0.084738016 0.22324704
000060 bd 2c 45 3e 0f 49 e5 3d b7 c6 be 3e 76 c9 0f bc
       0.19255348 0.111955754 0.37260982 -0.008776059
000070 e7 ec d2 3d 13 0d 2f 3f 37 a1 15 3e d9 2b 1b be
       0.10299092 0.68379325 0.1461228 -0.15153445
000080 c0 39 08 3c 39 4f 73 be 83 e6 f3 3d ed 08 a8 3e
       0.00831455 -0.2376069 0.11909201 0.3281931
000090 8d be 1f 3e d1 bb 1a 3e db 3d f2 3d a9 0a 02 3e
       0.15600033 0.15110709 0.11828204 0.12699379
0000a0 1b 5e 64 be e2 1e 93 3c 6c 7f 8f bd 1e fe ea 3e
       -0.22301523 0.017959062 -0.07006726 0.45897
0000b0 4c 30 c6 3e 7c f6 f7 3e 7c ac 4b 3e e1 2b 88 3e
       0.38708723 0.4843024 0.19890016 0.26595977
0000c0 bb e6 46 bd 6e b4 53 3e 4d 24 42 bd 5e 83 63 3e
       -0.048559885 0.20674297 -0.0473979 0.22218081
0000d0 e5 a6 9e 3d 94 1f de bd a5 4e 95 be fe 3f 9e 3d
       0.07746676 -0.10845867 -0.29161564 0.07727049
0000e0 8a 62 18 3e 70 a7 28 3e 1b e0 b8 be 7b 76 09 be
       0.1488134 0.16470122 -0.3610848 -0.13424103
0000f0 6e 43 b9 3d 36 2e 62 be d2 58 8e be 0a bc 16 3e
       0.09046064 -0.2208794 -0.2780214 0.14720169
000100 91 10 6d 3e 1b 3e 2c be c3 94 23 be ca 09 f2 3d
       0.23150851 -0.16820566 -0.15974717 0.11818273
000110 40 8c c5 3e ae 6e 4e bc 5e 20 a9 3e bd a3 a1 3e
       0.38583565 -0.01259963 0.33032507 0.31570235
000120 8c d3 b7 3e 77 8e 0b bf 18 91 3e bd c9 a3 aa bd
       0.35903585 -0.5451426 -0.04652509 -0.08332021
000130 5b e3 6b be 85 0d 53 3e ed e3 35 be 38 bb af be
       -0.23035948 0.20610626 -0.17762728 -0.34322524
000140 85 0a 9d 3d 92 b1 b8 be 36 25 e3 bd 3a 4e e7 3d
       0.07668022 -0.36072975 -0.11091082 0.112942174
000150 ff f5 61 3e 59 cf d9 bc 17 91 39 3e 63 7b 53 be
       0.22066496 -0.026588129 0.18121754 -0.20652537
000160 53 36 0a be bd 62 28 be 78 4b 6a be ce 25 bc 3c
       -0.13497286 -0.16443916 -0.22880352 0.022967245
000170 20 3e 5c be af 2f 36 bf 2f fc 80 be 64 0a 83 3d
       -0.21508074 -0.7116651 -0.251924 0.06398466
000180 35 98 08 be 7c 9f 09 3d 60 f8 70 be 9c a0 01 bf
       -0.13339312 0.03359936 -0.23532248 -0.50635695
000190 e4 b7 2a be ad 10 60 be 68 e0 79 be cf 55 8a be
       -0.16671711 -0.21881361 -0.2440201 -0.27018592
0001a0 51 06 4e 3e 95 d3 f8 3d 1c 1b 66 3e 38 3d d2 be
       0.20119597 0.12149731 0.22471279 -0.4106233
0001b0 a7 14 15 be 2e 1f 8b be 78 e6 5b be b4 c1 b5 be
       -0.1455866 -0.27172226 -0.21474636 -0.35499346
0001c0 64 13 25 3e 55 ec a5 be 24 bc 9c 3d b4 39 dd bd
       0.16120678 -0.3240687 0.076530725 -0.108020216
0001d0 5e f6 56 be f8 dd 82 3e 68 de d7 3e a1 cf 05 be
       -0.20992419 0.25559974 0.4216187 -0.13067485
0001e0 4a dc 0f be e2 02 e7 39 83 ed 97 3e ea 76 1e 3e
       -0.14048877 0.000440619 0.29673395 0.1547505
0001f0 2a 01 9f bd a8 1f ae 3d e2 39 6c 3e 72 a8 80 3d
       -0.07763894 0.08502132 0.23068956 0.062821284

bias f4 [2]
000000 05 62 1b bf 6d 2b 56 3f
       -0.6069644 0.8366001
